assign3_convolution_nn/archive/best.pth (torch_old, 19929 bytes, 13 tensors)

pipe1.0.weight f4 [8, 3, 5, 5]
000000 82 b2 9e 3d d5 a1 20 bd 01 c9 ac 3d 1a 53 8c bc
       0.077488914 -0.039216835 0.08436776 -0.01712947
000010 d2 af 5d 3d 71 58 c6 3d 2e 2b 9f bd 55 c1 43 bd
       0.054122753 0.096848376 -0.07771908 -0.047791798
000020 93 72 8c 3d 3a c4 e2 3d ce 18 a1 bb ea bf e3 bd
       0.06857791 0.110725835 -0.004916287 -0.11120589
000030 b9 e5 02 bd ef 34 d9 bd 21 99 aa 3b fd 22 f0 bc
       -0.03195736 -0.106057994 0.0052062427 -0.029313559
000040 f2 f1 b1 3d 7d 27 e7 3d 34 15 e3 3d 93 3b 35 3d
       0.086887255 0.11286829 0.110880286 0.044246268
000050 54 0a d0 3d 2f 00 c5 bd d2 32 44 bd bf 2e c4 3d
       0.1015822 -0.09619176 -0.04790003 0.095792286
000060 3b c3 81 3c 4d 34 47 3d 69 64 30 bd 0f 46 1a bc
       0.015840163 0.048633862 -0.04306451 -0.009416117
000070 21 ec a3 3d 01 db db bd 2d 95 85 bd c3 de 69 3c
       0.080040224 -0.10735131 -0.06522594 0.014274302
000080 93 55 80 bd 09 17 32 3d fb 97 ad bd 59 9f 1e 3d
       -0.06266322 0.043479 -0.084762536 0.038726185
000090 1a 1c e8 3d 22 a0 e0 bd d5 91 54 3d 56 8a 4d bc
       0.11333485 -0.10968043 0.05189689 -0.012545189
0000a0 36 3a 87 bd eb 65 24 3d 7f 23 87 3d db ed 0a bc
       -0.066029 0.04013626 0.06598567 -0.008479561
0000b0 6f 10 7b bd 3a 00 d9 3d 20 22 25 3d 2b 4f 9e 3c
       -0.06129497 0.10595746 0.040315747 0.01932486
0000c0 06 0b ed bc ce 02 ae 3d 29 a7 34 bd 2d 0a 4d 3d
       -0.02893592 0.08496629 -0.04410473 0.050058533
0000d0 71 d1 93 bd b6 e3 7d bd 15 13 15 bd 1e 85 b3 3d
       -0.07217682 -0.06198474 -0.03639515 0.087656245
0000e0 0e e2 87 3d 81 24 d9 3b 19 a1 21 3d 2b 61 e9 3d
       0.066349134 0.006626666 0.039460275 0.113954864
0000f0 c2 6d bb 3d e1 81 39 39 58 3b 7f b9 cc 04 05 3c
       0.09151794 0.00017691359 -0.00024340802 0.008118819
000100 58 56 c1 3d 69 69 aa 3d cf 9c ad bd 3b e8 e5 bd
       0.09440297 0.08320887 -0.084771745 -0.11225935
000110 ee 50 60 3b 83 69 bf 3d 7c cb ab 3a 34 92 a3 3d
       0.0034227925 0.09346297 0.0013106908 0.079868704
000120 0d 04 bc 3d 3d a0 e1 3d 6c d2 c6 bd 66 f7 c6 bd
       0.0918046 0.11016891 -0.097081035 -0.09715156
000130 08 47 54 3d e4 e4 ec 3c 1a 18 67 bd 31 dc 91 ba
       0.051825553 0.028917737 -0.05641947 -0.0011128244
000140 83 d6 9b 3c 2f a7 b1 bd de d7 9a bd 17 80 f4 3b
       0.019023186 -0.08674466 -0.07560705 0.0074615586
000150 9b cd d4 bb a4 1f c8 bb 94 38 ec bd 39 ee d0 3c
       -0.0064942366 -0.0061072875 -0.11534229 0.025504218
000160 4f c2 52 bd e7 c6 e8 3c 1a 22 f3 b9 ae 2f e3 3d
       -0.05145484 0.028415157 -0.0004637398 0.110930786
000170 e4 6f 8a 3d b7 5c 50 3d 83 d1 25 3d 77 ff a2 3d
       0.06759623 0.05086967 0.04048301 0.07958882
000180 93 d1 db bc cf fa 24 3c 4b dc ba bd 8b 3f b7 bd
       -0.026833331 0.010069563 -0.09124049 -0.08947667
000190 39 f3 9c bd ad 80 8b bc 30 1e 50 3c e7 89 f7 bc
       -0.076635785 -0.01702913 0.01270251 -0.030217124
0001a0 51 b3 d8 bd 8e 20 b3 bc 8b be 83 3c c6 9c a8 3d
       -0.10581077 -0.02186611 0.016082069 0.08233027
0001b0 a4 10 2c bd 00 d3 2c bd 45 81 05 3d 35 55 97 3c
       -0.042008057 -0.042193413 0.032593984 0.018473247
0001c0 27 cf d2 bd 5d ac b4 3d 8f 71 95 bc 01 b3 88 bd
       -0.102934174 0.08821938 -0.018242626 -0.06674767
0001d0 e8 9f 89 bc 3a 30 df bd f1 3d c5 bc 31 d4 b0 bc
       -0.016799882 -0.1089787 -0.024077388 -0.021585556
0001e0 d7 c4 bd 3d 47 8d a2 bd 7d 18 af bd 8e 70 c2 bd
       0.0926606 -0.07937103 -0.08549593 -0.09494124
0001f0 84 8e cf 3d ed d7 b5 3d e9 3a 36 3d ba b6 d9 bd
       0.101346046 0.08879075 0.044489775 -0.106305555
000200 81 59 bd bc 3f 58 87 3c cf e3 b7 3d b7 74 da 3d
       -0.023113968 0.016521571 0.08978998 0.10666793
000210 e9 89 ca bd da 44 6d 3c 36 c2 03 3d 0b 91 85 3d
       -0.098895855 0.0144817475 0.032167636 0.065218054
000220 56 93 0e 3d 00 56 67 3d 87 4d 7f bd 86 e6 b6 bc
       0.03480848 0.0564785 -0.062329795 -0.022326719
000230 7a ef 29 bd a1 06 c2 bc b3 7e 32 3d c1 44 b1 bb
       -0.04148815 -0.023684802 0.04357786 -0.0054098074
000240 1f 6c 93 3d 4f 5e 4a bd 72 17 e4 bd 4d db d4 3d
       0.07198357 -0.049406346 -0.11137284 0.10393391
000250 5c 26 64 bd b3 11 69 bd 17 b1 e3 3d 6e 86 0e 3d
       -0.055700645 -0.056901645 0.111177616 0.03479617
000260 68 03 99 3d 57 85 55 bd a4 7d d2 3b 8c cd 2f bc
       0.07471353 -0.052129116 0.006423669 -0.010730159
000270 64 ae e8 bd 28 8a c1 bc c7 2a e2 bd e9 03 dd 3c
       -0.11361387 -0.023625448 -0.110433154 0.026979404
000280 ef 37 0e 3d 08 46 db 3d dc b2 a2 3d d8 67 4d 3c
       0.03472131 0.10706717 0.07944271 0.012536965
000290 c2 0d 61 3d 8a 78 db bd 7c 6c 8d 3d 50 d8 3c bb
       0.05494476 -0.107163504 0.069054574 -0.0028815456
0002a0 ba 5d 4f 3d 9b f3 e6 3d 4c 5a 13 3d bf 7a bc 3d
       0.050626494 0.11276933 0.035974786 0.092030995
0002b0 6b c9 c6 3d 75 02 bc 3c ae a1 4b 3d a1 69 db bd
       0.09706386 0.02295039 0.049714737 -0.107135065
0002c0 fc 72 5b bd 44 0d b4 bd 26 73 70 bd ce 74 99 3c
       -0.053576455 -0.08791593 -0.058703564 0.018732455
0002d0 f5 27 8d 3d e3 0c 98 3d d5 1b cc 3b f8 59 54 3d
       0.06892387 0.07424333 0.006228904 0.051843613
0002e0 7f c5 a3 3d 19 fe a8 bd eb a1 48 3c 55 ec 86 3d
       0.07996654 -0.0825159 0.0122456355 0.065880455
0002f0 84 9c 89 bd f9 e5 b6 3c 3c ab cb bd da e7 98 3d
       -0.06719306 0.022326456 -0.0994477 0.07466097
000300 cf ff 82 3d 91 a5 87 bd 77 d2 f4 3c 74 5e fc 3c
       0.06396448 -0.06623376 0.029885514 0.030806758
000310 5c d3 79 3c 88 8b 8f 3c 7d 95 05 3d a7 4c e1 3d
       0.015248146 0.017522588 0.032613266 0.110009484
000320 31 dd e1 3d 80 8f a0 bc c6 8c be bc c7 42 8d 3d
       0.11028517 -0.019599676 -0.023260485 0.068975024
000330 8b 70 68 3d 5f 83 83 bd d2 33 a9 3d ee 2a 96 bd
       0.056747954 -0.064215414 0.08261837 -0.07332407
000340 83 4d ca 3d a8 dc b5 bd 00 20 4c 3c a2 c2 d9 3b
       0.098780654 -0.088799775 0.012458801 0.0066455165
000350 9d 0b 5c 3d 1c 4d 83 3d 09 f3 4c 3d 44 a5 3c 3d
       0.053722013 0.06411192 0.050036464 0.046056047
000360 de e5 dd 3c 66 82 b5 bd 46 23 13 bd b3 c1 af bd
       0.027087148 -0.08862762 -0.03592231 -0.08581867
000370 7d 8e bc 3b 43 81 09 bd 83 92 e3 bd c2 b4 94 bd
       0.0057542906 -0.03357054 -0.11111929 -0.07261039
000380 0c 36 d7 bd 34 5b 46 bd 4a a4 c8 3d 89 1d 83 3d
       -0.105083555 -0.04842682 0.09796961 0.06402118
000390 49 d0 9e 3c 91 19 df bd 00 fd 45 3c 43 6c a6 3d
       0.019386427 -0.10893548 0.012084246 0.08126118
0003a0 c8 46 e7 bd c4 0b 6b 3d 5a 6e 7e bb 60 7c c4 3c
       -0.11292797 0.057384267 -0.00388231 0.023985088
0003b0 8d 7b 4e 3d 6b 5e 9d 3d cd a0 7c 3d 4a dc 6e 3d
       0.050410796 0.076840244 0.06167679 0.058315553
0003c0 86 0b bb 3d 45 67 b8 3b 0c 08 b8 bd 47 a4 48 bd
       0.09133057 0.005627545 -0.0898591 -0.048984792
0003d0 09 af 74 3d 85 23 d2 ba d2 e0 5b bd 6f f4 dc bd
       0.05973724 -0.0016032314 -0.053681202 -0.107888095
0003e0 d0 54 e7 3c 90 bc c6 bb 18 29 b1 3d 4a ec 85 bd
       0.028238684 -0.006064959 0.08650416 -0.06539209
0003f0 58 d8 65 3d a1 cc 72 3d ce 17 15 3c 19 12 5e 3d
       0.056114525 0.05927718 0.009099914 0.054216478

pipe1.0.bias f4 [8]
000000 df 98 eb bd f3 98 a2 3d 27 82 bc 3d c4 f0 9d bd
       -0.11503767 0.07939329 0.09204512 -0.07711938
000010 f7 c6 d4 3d d9 fb d9 bd 5a 9a 0a bd 82 4d 72 3d
       0.10389512 -0.10643739 -0.033838607 0.05915595

pipe2.0.weight f4 [16, 8, 3, 3]
000000 8f 4e 22 bd b0 58 2b bd 27 c2 b6 bd 52 f8 f2 bc
       -0.0396257 -0.041832626 -0.0892375 -0.029659424
000010 24 9d 36 bd 72 4e 0d bd cf 76 ea 3d bf 96 e5 3d
       -0.044583455 -0.03449864 0.11448442 0.11210393
000020 d1 f1 f4 bb 65 4b f0 3d 01 b5 7b bd 4f b7 5b 3d
       -0.007475116 0.1173313 -0.061451916 0.053641614
000030 fe 60 da 3d a0 e2 0f bd 80 35 88 3d 4b c3 04 bd
       0.10663031 -0.035128236 0.06650829 -0.03241281
000040 9a bc bf bd a2 40 ae 3b f6 02 43 bd 1d a9 f8 bc
       -0.09362145 0.0053177634 -0.047610246 -0.030354077
000050 56 18 c0 bd 6d 87 b2 bd a8 c7 8b 3d c0 30 e1 bd
       -0.09379642 -0.08717237 0.06825191 -0.109956264
000060 df 2e 76 3d 6a c8 a2 3d 89 5a b8 bd 98 f7 70 ba
       0.060103294 0.07948382 -0.09001643 -0.0009192168
000070 39 aa e3 3d af ff 8e 3d 3d f2 42 3c 28 3a 8f ba
       0.11116452 0.069823615 0.011898574 -0.0010927366
000080 e4 c5 d4 3d d4 03 1d bd 3b 8a 87 3c 46 b3 98 3d
       0.10389307 -0.03833373 0.016545406 0.07456069
000090 16 ba 8d 3d fa 9e cf 3d af dc a0 3d 09 29 2b 3d
       0.06920259 0.10137744 0.07854592 0.04178718
0000a0 dc 07 e4 bd 42 ea 2b 3d ca 47 8a 3d a9 1a a1 3d
       -0.111343116 0.041971453 0.06751974 0.07866413
0000b0 3b c5 c2 3c 57 64 6c 3d 65 d7 a4 3d 11 74 2d 3d
       0.023775687 0.05771288 0.08048896 0.042347018
0000c0 bd b4 9f bc 48 36 8e 3d 5e 58 8f 3d 3c d2 1e 3d
       -0.019495362 0.06943947 0.069992766 0.038774714
0000d0 35 82 2a bd d5 bc 4c bd 06 ca ba 3b fa 30 11 3d
       -0.04162808 -0.04998477 0.0057003526 0.0354471
0000e0 a9 0a 2b bb db 34 7b 3d d1 8b e3 bc e9 dc 07 bd
       -0.0026098883 0.061329704 -0.02777663 -0.03316966
0000f0 8e ea fa bc 34 98 48 3d fa 37 54 bd 27 aa af 3d
       -0.030629423 0.048973277 -0.051811196 0.08577376
000100 54 c8 8a 3d de 21 dd bd bd 53 51 bc 3d cc dd bd
       0.06776491 -0.10797475 -0.012776312 -0.10829971
000110 c8 9e e1 3c 7b fe cb bd be 0e 2f 3d 59 a1 59 3c
       0.027541533 -0.09960648 0.04273867 0.013283097
000120 cc 15 5e 3d 06 b0 f6 3c 2a 1b c6 3d f2 c7 ac bd
       0.054220006 0.030113231 0.0967315 -0.08436574
000130 37 2a 2e 3d da 6d a8 3d d2 b4 5e 3d e7 a9 67 3d
       0.042520728 0.082240775 0.054371662 0.056558516
000140 19 e0 89 3d bc 7c 49 bd 20 c3 04 3c 55 ec bc 3d
       0.06732196 -0.04919122 0.008103162 0.09224764
000150 ea 17 82 bd 14 b0 9c 3d b9 73 08 bc e5 31 eb 3d
       -0.063522175 0.07650772 -0.008328372 0.11484126
000160 1f a0 0f bd 28 28 5a 3d 18 9b 15 3d 77 c4 b7 3d
       -0.035064813 0.053260952 0.036524862 0.089730196
000170 58 11 c9 3c 57 34 cb bd 76 54 45 3d 97 c1 96 bd
       0.024544403 -0.099220924 0.04817625 -0.07361143
000180 b6 87 de bb e0 6c d4 bd 8d 10 90 3d c9 78 7e 3d
       -0.0067910803 -0.10372329 0.07034407 0.06212691
000190 83 be 6f 3d ee 74 c4 3c e0 fc b1 bd e9 99 ed 3d
       0.058531296 0.023981538 -0.0869081 0.11601622
0001a0 99 b4 de 3d a8 b4 b0 3d 74 30 82 bd ba 25 ac bd
       0.1087429 0.086282074 -0.06356898 -0.08405633
0001b0 79 83 e0 3c 8a 6e 99 3d c2 a8 b1 bd e9 2f b2 3d
       0.027406441 0.07491787 -0.08674766 0.087005444
0001c0 8d fb a3 3d fd 62 b0 bd 78 84 c8 bc 69 cf f3 bc
       0.08006964 -0.086126305 -0.024477229 -0.029761987
0001d0 ec 17 d5 bc 00 02 75 bd 23 28 a5 bd 41 91 d2 bd
       -0.026012383 -0.05981636 -0.08064296 -0.10281611
0001e0 70 fd e3 3c 93 cb 58 3d cd 46 89 3b 5a 3d 64 3d
       0.02783081 0.05292852 0.0041893483 0.055722572
0001f0 4d 9e be 3d 8f ed b7 bd 47 ce b2 bd 4f f2 7c bd
       0.09307537 -0.089808576 -0.087307505 -0.06175452
000200 df ee c2 3d d4 71 a3 bd f6 25 36 bd c2 29 9a 3d
       0.09518217 -0.07980695 -0.044469796 0.07527496
000210 39 53 34 3d 5e 6e af 3d b0 70 d6 bd 24 05 d3 bd
       0.04402468 0.08565973 -0.10470712 -0.10303715
000220 19 55 c9 3d ce b8 be 3d b8 fd 49 3d e0 48 61 3d
       0.09830684 0.093125924 0.04931423 0.05500114
000230 72 53 00 3d 37 dc 77 bd 9f fa 88 3d 2f d7 a9 3d
       0.03132958 -0.060512748 0.06688427 0.08292996
000240 fc ab 3d bd ca 3f a6 3d 52 68 8d bc e6 ca 65 bc
       -0.046306595 0.081176355 -0.017261658 -0.014025426
000250 52 78 57 bd 3a ef 74 bd f9 1d 2d bd 22 76 c1 3d
       -0.05260498 -0.059798457 -0.042264912 0.0944636
000260 eb b1 83 3d 3b 07 54 3d e3 82 b2 bd f7 2a 69 3c
       0.064304195 0.051764708 -0.08716371 0.014231435
000270 9a c0 f7 bc c9 ea ee 3c 61 01 05 3d 66 05 ed bd
       -0.030243207 0.029164689 0.03247202 -0.11573295
000280 2d cc df 3c e7 83 a5 3d f6 19 d0 3d 99 77 1b 3d
       0.027319038 0.08081799 0.10161202 0.037955854
000290 fc 96 1e 3d 5c 69 d8 3d 28 89 cf bd 39 a1 8f bc
       0.03871821 0.10566971 -0.10133582 -0.017532932
0002a0 3f d4 85 3c 28 6a 7e 3d 42 33 c7 bd 26 c4 99 3c
       0.016336558 0.062112957 -0.097265735 0.018770289
0002b0 bf 7a 8d 3d 94 53 6b 3d 51 6b 79 bd 4a 4b a3 3d
       0.069081776 0.057452753 -0.06089336 0.079733446
0002c0 df 12 56 bc 9f 59 9d bd bd 36 cc 3d fe f5 50 3d
       -0.013066023 -0.076831095 0.09971378 0.051015846
0002d0 e8 b8 ce bd 49 48 f3 bc 31 d9 ce 3d ef 3b fc 3c
       -0.10093862 -0.029697554 0.1010002 0.030790297
0002e0 0e e4 24 3b 2a 50 99 3d 39 fe a6 3d 5a e7 e5 bc
       0.0025160345 0.07485993 0.08153958 -0.028064419
0002f0 65 a6 9d bd 53 cf 60 3d d2 24 d9 bd ac 25 d2 bd
       -0.07697753 0.05488522 -0.10602726 -0.102610916
000300 99 7b b8 3d b7 84 93 3d 96 dc ec 3d 08 fb e6 3d
       0.090079494 0.07203048 0.11565511 0.11278349
000310 e6 ec 65 bd 25 ef 9f bd 8f cd 2c bd e7 88 be bd
       -0.056134127 -0.07809285 -0.042188223 -0.09303456
000320 81 f8 57 3d a3 b7 56 3d 62 c7 ba bc bd 08 a3 3d
       0.052727226 0.052421223 -0.022800151 0.07960651
000330 90 42 94 3d 1b f9 40 3d 4d e3 ca 3d b7 3f 13 bc
       0.07239258 0.047112565 0.099066354 -0.008987359
000340 e5 7d cf bd 01 61 bc 3c fa 09 b7 bd 79 5b 9d bd
       -0.10131434 0.022995474 -0.0893745 -0.07683463
000350 e9 63 ac bd 80 5e 7c 3b 39 0c 2d 3c 3f ed c9 bc
       -0.08417494 0.0038508475 0.010561996 -0.02464926
000360 c6 e5 a6 3d d9 12 82 bd cb 0f 8a 3d cc f2 83 3d
       0.081492946 -0.06351251 0.067412935 0.06442794
000370 a5 52 a4 bc e0 27 88 3d 26 c1 c9 3d 3a 3a 1d bd
       -0.02005894 0.066482306 0.09851293 -0.038385607
000380 c0 d0 3d bd fc f4 46 3d 8b a8 bd 3d 35 67 a6 3d
       -0.046341658 0.04857348 0.09260663 0.08125154
000390 73 a0 90 3d a2 b4 74 3d fc dd 69 bc 16 0e 36 3d
       0.07061853 0.059742577 -0.014274117 0.044447027
0003a0 b8 14 bb bc 74 9b a8 3d 1f f7 9f 3d 7a 1c 59 bd
       -0.022837028 0.08232775 0.078108065 -0.053005673
0003b0 42 f4 93 bd d2 78 3b bd 33 2f 87 bc ec 6d b8 bd
       -0.07224323 -0.04576952 -0.016501999 -0.09005341
0003c0 5c de cc 3d d3 f2 b1 bd 3d 9b b7 ba cb 9d 1e bd
       0.10003349 -0.08688893 -0.0014008057 -0.0387247
0003d0 d6 f7 b4 3d c0 0a a1 bd 3b 50 80 3d 0e 6e 3b 3d
       0.088363335 -0.078633785 0.06265303 0.045759253
0003e0 08 58 39 bd db 8f 8f 3b 57 ca c3 bd 7b c1 3b 3d
       -0.04524997 0.0043811626 -0.09560078 0.045838814
0003f0 37 05 ed bd 91 10 49 bd c1 81 9b 3c 86 3d c5 3d
       -0.1157326 -0.049088065 0.01898277 0.09630875

pipe2.0.bias f4 [16]
000000 07 f1 b6 bd 5a 8d cf 3c 09 66 75 3d f0 4e 2c 3d
       -0.08932691 0.025335956 0.05991176 0.04206747
000010 b0 9e 38 3d 9c 51 c2 3d d2 3f 95 bc be 33 bd 3d
       0.04507321 0.09488222 -0.018218908 0.09238385
000020 04 28 b3 3d c8 b0 72 bd e7 d0 c6 3d 43 81 ee 3d
       0.08747867 -0.059250623 0.09707814 0.116457485
000030 a9 c3 d6 3d c6 80 21 3d c6 d2 dc bd 5f 3d e3 bd
       0.10486538 0.03942945 -0.10782389 -0.1109569

pipe3.0.weight f4 [32, 16, 2, 2]
000000 49 9e 49 bd bc 15 fa 3d a8 e1 25 3d d8 12 ee 3c
       -0.049223218 0.12211177 0.040498406 0.02906172
000010 03 19 c2 3d 0b b3 b0 bd e7 09 5d bd 2c 47 f6 bc
       0.09477427 -0.086279 -0.05396452 -0.030063234
000020 59 fd 3d bd 4b 29 f3 bd 1d ab 50 3d b6 9e ce 3b
       -0.04638419 -0.118731104 0.050944436 0.006305541
000030 91 bb 82 bc 2d d9 a2 3d b1 3f bd bd ae 14 b4 3c
       -0.01595858 0.07951579 -0.09240664 0.021982517
000040 a4 54 46 3d 39 d1 4f 3d 07 27 1d bd 0a 5f 08 bd
       0.048420563 0.05073664 -0.038367298 -0.03329376
000050 6a ef e7 3d 72 da 14 bd 1c 22 58 3c 8e 29 e5 3d
       0.113249615 -0.03634114 0.013191726 0.111895666
000060 d9 5e d0 3d b5 c2 4c bd 5f 40 43 3d ee ef fd bd
       0.10174341 -0.049990375 0.04766881 -0.123992786
000070 91 98 53 bd b2 d5 bb bd e4 6e 4f bc bf f0 d0 bd
       -0.05165917 -0.091716185 -0.012660716 -0.10202169
000080 69 65 12 bc f6 a1 b5 3d 65 0c f9 bd bf a8 ba 3c
       -0.008935311 0.08868782 -0.12160567 0.022785543
000090 a0 74 f7 bc f9 f1 f1 3d 3a eb 98 3d b4 17 5c 3d
       -0.030206978 0.11813731 0.07466741 0.053733543
0000a0 77 2b 00 be 87 a2 96 bd b8 e6 d7 3d 62 7c 90 bc
       -0.1251658 -0.073552184 0.10542053 -0.017637435
0000b0 d3 68 5f bd bc be e6 bd bf a2 2b 3d fe 88 81 3d
       -0.054543328 -0.112668484 0.041903254 0.06324957
0000c0 87 e2 98 3d bd dd 88 3c 9a 66 aa 3d 21 d5 1e bd
       0.07465082 0.016707296 0.08320351 -0.038777474
0000d0 56 60 2f bc 38 59 f6 bc 13 85 ef 3d 9b 90 23 3d
       -0.010704121 -0.03007184 0.11695304 0.03993283
0000e0 e8 89 0e 3d ef 7f 32 bd e7 da 9d bd 73 39 de 3d
       0.034799486 -0.04357904 -0.07707768 0.10850801
0000f0 f5 c9 c4 bd 59 d8 b3 3d 2c 3e 8e bd 87 ff 7a 3d
       -0.09608833 0.087814994 -0.06945452 0.061278846
000100 bc cb 86 bd a4 9a 7e bd 41 72 ae 3c f1 e3 3a bd
       -0.06581828 -0.062159196 0.021294715 -0.045627538
000110 78 f4 6e bd df d6 10 3d fd de 5c 3d bb f3 f7 3d
       -0.058338612 0.035361167 0.053923596 0.12107035
000120 65 e6 1c 3d 14 8e 5e bd c8 7f 1b 3d e0 e0 3c ba
       0.03830566 -0.054334715 0.03796366 -0.000720514
000130 c7 4d fe 3d 7b 62 33 3d ea bc 24 bd 9d 23 71 3d
       0.124171786 0.04379509 -0.040219225 0.058871854
000140 a6 12 99 bd 14 7d aa bd 6b a9 2c bd 47 43 8d bd
       -0.0747426 -0.08324638 -0.042153757 -0.06897598
000150 38 d4 c5 3d 5d b5 8c bb e6 3d cb 3d ff 8f 86 3d
       0.09659618 -0.004294081 0.099239156 0.06570434
000160 f1 68 0b 3d 76 da b7 3a 39 9f 67 bd 6b c3 1f bd
       0.034035627 0.0014026898 -0.05654833 -0.039004724
000170 4d 5f f8 bd 4a 49 fc 3b 21 1d c2 bc 20 fa 3b 3d
       -0.12127552 0.0076991664 -0.02369553 0.045892835
000180 f2 9f ed 3d aa 5d 15 3d ae 56 db bd 13 ef 04 bd
       0.11602773 0.036466278 -0.10709892 -0.03245456
000190 3c c0 eb bd db 1d 15 bd a1 9e 21 ba c4 b7 f5 bd
       -0.11511275 -0.036405426 -0.00061653 -0.11997941
0001a0 e3 76 a1 3d 42 7c a7 3d 2f 1b d6 3b 81 38 94 bd
       0.07884004 0.08177997 0.0065340023 -0.0723734
0001b0 cd 57 9e 3d 0a 88 99 3d 5d 2e c8 3d fd c4 a2 3d
       0.077315904 0.074966505 0.09774468 0.07947729
0001c0 9f 8a 86 bd c6 aa a6 bd d7 a2 92 3c 7d 2f 37 3d
       -0.065694086 -0.08138041 0.017899914 0.044723023
0001d0 f1 d6 c6 bc 08 52 dc bd 70 7b e9 3d 77 b2 26 bd
       -0.024272414 -0.10757834 0.11400497 -0.04069754
0001e0 b3 10 e4 bd 23 f0 b2 3a c1 3b 91 bd 7a b4 e2 3c
       -0.111359976 0.0013651889 -0.07091475 0.027673949
0001f0 83 62 99 3d 85 71 93 bc 17 c4 e4 3d 51 32 9d 3d
       0.07489493 -0.017998466 0.11170214 0.07675613
000200 60 a8 2c 3d f4 21 1e 3d f1 e8 b6 3d a3 9f f3 3d
       0.042152762 0.0386066 0.08931149 0.11895683
000210 15 68 72 bd d2 dc 37 3d c6 78 e2 bd 6d 5a 3d bd
       -0.05918129 0.044888325 -0.11058192 -0.046228815
000220 ba de db 3d da 7d c3 bd 52 33 e4 bd 7f b4 0f 3d
       0.10735841 -0.09545489 -0.11142601 0.035084244
000230 58 46 dd bd 76 ef 82 3d b5 28 cd 3d 24 5a f0 3d
       -0.10804433 0.0639333 0.1001753 0.11735943
000240 92 14 07 3c 67 a9 d8 bc 23 d4 d2 bd 1a 48 0d 3d
       0.00824465 -0.026447965 -0.10294368 0.03449259
000250 fb 2d 93 bd 7d 56 d4 bd 17 6c b9 3c 69 32 c9 3d
       -0.071865045 -0.10368059 0.022634549 0.09824068
000260 e2 84 df 3d a5 32 29 3c fe cd ea 3d 2a 9d 0d 3d
       0.10914017 0.010327016 0.11465071 0.03457371
000270 12 d7 da 3d 3a bc 02 3d ab ed 88 3c 0c d5 f9 bd
       0.10685553 0.031917788 0.016714891 -0.121988386
000280 ea 1e 5b bb d5 19 b5 bd 67 88 84 3d d8 91 04 3d
       -0.0033435174 -0.08842818 0.06471329 0.03236565
000290 32 84 c0 3d 1b ce 47 3d c9 e4 37 3d 74 e7 41 3d
       0.09400214 0.048780542 0.04489592 0.04733987
0002a0 a7 96 82 bc 7c 81 c5 bd 18 32 e3 bc f4 a2 37 bd
       -0.015940977 -0.09643838 -0.027733847 -0.04483314
0002b0 10 93 7a 3d b9 7e 81 bd 97 5f 36 bd d3 d8 89 bd
       0.061175406 -0.063229986 -0.044524755 -0.06730809
0002c0 ba 43 81 bd 2d a9 bb 3d a7 b3 b4 3d 2e 85 0b 3d
       -0.06311746 0.09163127 0.088233285 0.034062557
0002d0 8a f8 db bd fd c5 ab 3d d8 8c 47 bd c0 a0 f4 bd
       -0.107407644 0.08387373 -0.048718303 -0.11944723
0002e0 3e cd 2f bd 07 28 12 bd 42 d9 08 3c 0f 6b ee bd
       -0.042920344 -0.035682704 0.00835258 -0.116415136
0002f0 60 6c 12 3c 50 34 d2 bd 80 fd 5c 3d bc 13 a4 3d
       0.008936971 -0.10263884 0.053952694 0.080115765
000300 fc 0b 68 bd 98 10 ac 3d 58 2c b8 bd 68 64 d7 bc
       -0.056652054 0.084016025 -0.08992833 -0.026292995
000310 ce e6 f1 3d dc fd 6c bd c8 71 aa 3c 5c 6a 8c 3d
       0.118116006 -0.057859287 0.020806208 0.06856224
000320 1c e9 e9 3d 2e 60 95 bd 76 58 f9 bd 7a fa 93 3d
       0.11421415 -0.072937354 -0.12175076 0.07225509
000330 bc 0b ce bd f2 3c 95 3d 80 14 77 bd 38 96 91 3d
       -0.10060832 0.07287015 -0.060322285 0.0710873
000340 80 68 18 3d 00 67 f3 3b e0 1e 8b 3b cc 17 43 bd
       0.037209034 0.00742805 0.004245624 -0.047630116
000350 e0 c5 a7 bc 20 0e b6 bb 1c 33 98 3d 54 72 29 3d
       -0.020480096 -0.005555883 0.07431623 0.041368797
000360 10 43 b1 bd ae ae b0 bd 20 27 c5 3c 2e f3 d8 bd
       -0.08655369 -0.086270675 0.024066508 -0.10593258
000370 30 e2 00 bd 3a 1e e9 bd a0 17 cd bb 7e bf 8d 3d
       -0.03146571 -0.113827184 -0.00625892 0.0692129
000380 62 23 c3 bd 2a 56 d2 bd 52 6d 89 3d 10 9e 5d bc
       -0.09528233 -0.10270341 0.06710304 -0.013526455
000390 d4 69 33 3d 46 26 c5 3d 18 26 41 bd dc 6f 1d bd
       0.043802097 0.09626441 -0.04715547 -0.038436756
0003a0 5c 2e 44 3d 80 20 b4 ba 82 57 a6 bd c4 f5 b3 bd
       0.047895774 -0.0013742596 -0.081221595 -0.087871104
0003b0 78 85 4f bd d0 0b b5 bd f8 dc 4d bd e0 ff 37 bc
       -0.050664395 -0.08840144 -0.05025956 -0.011230439
0003c0 80 8c ed bb c0 34 fe 3c 80 ce 5d 3d 34 df 0a bd
       -0.007249415 0.031031013 0.054152012 -0.03390427
0003d0 10 24 16 3d 04 f9 82 bd 6c 2f c5 bd 70 be d3 3c
       0.036655486 -0.06395152 -0.09628186 0.025847644
0003e0 90 a4 ff 3c 8c ef 26 3d d8 dd a5 3c 48 57 a1 3c
       0.0312064 0.040755793 0.020247385 0.01969494
0003f0 42 ee 91 3d f6 4b a1 bd 74 80 0b 3d 50 97 b3 3d
       0.07125522 -0.078758165 0.03405805 0.08769095

pipe3.0.bias f4 [32]
000000 23 a7 b5 3b 29 cf 19 3d 3c e7 27 3c 18 b4 bd 3c
       0.005543606 0.03755108 0.010248002 0.023157164
000010 fd 4e 68 bc 5e b8 2e 3b 5d 64 68 3d 18 bd 91 bd
       -0.0141789885 0.0026660184 0.05673634 -0.07116145
000020 2d 4a 27 bd 14 12 74 bd 6b 00 c2 bc 9d 7f ad 3d
       -0.040842224 -0.059587553 -0.02368184 0.08471606
000030 6c 04 4c bd d7 20 de 3d d4 2b f4 bd 00 ca ec 3d
       -0.049808905 0.108461075 -0.11922422 0.11561966
000040 be 6d 36 3d c0 fb 1b 3c 16 a8 e9 bd d1 33 d3 3c
       0.044538252 0.009520471 -0.11409013 0.025781544
000050 d6 ee b6 3d a9 97 50 3d 66 8e 8b bd 5c 89 38 bd
       0.08932273 0.050925884 -0.0681427 -0.04505287
000060 ba 56 c9 3d 6c 1b 3b bd 01 86 ca 3d 2d 1a b3 3d
       0.09830995 -0.04568045 0.098888405 0.08745227
000070 b4 fb 56 bd 96 43 b0 bc 7e e5 d0 3d d7 cb af 3d
       -0.052486137 -0.021516602 0.10200022 0.08583801

pipes.0.0.weight f4 [8, 3, 5, 5]
000000 82 b2 9e 3d d5 a1 20 bd 01 c9 ac 3d 1a 53 8c bc
       0.077488914 -0.039216835 0.08436776 -0.01712947
000010 d2 af 5d 3d 71 58 c6 3d 2e 2b 9f bd 55 c1 43 bd
       0.054122753 0.096848376 -0.07771908 -0.047791798
000020 93 72 8c 3d 3a c4 e2 3d ce 18 a1 bb ea bf e3 bd
       0.06857791 0.110725835 -0.004916287 -0.11120589
000030 b9 e5 02 bd ef 34 d9 bd 21 99 aa 3b fd 22 f0 bc
       -0.03195736 -0.106057994 0.0052062427 -0.029313559
000040 f2 f1 b1 3d 7d 27 e7 3d 34 15 e3 3d 93 3b 35 3d
       0.086887255 0.11286829 0.110880286 0.044246268
000050 54 0a d0 3d 2f 00 c5 bd d2 32 44 bd bf 2e c4 3d
       0.1015822 -0.09619176 -0.04790003 0.095792286
000060 3b c3 81 3c 4d 34 47 3d 69 64 30 bd 0f 46 1a bc
       0.015840163 0.048633862 -0.04306451 -0.009416117
000070 21 ec a3 3d 01 db db bd 2d 95 85 bd c3 de 69 3c
       0.080040224 -0.10735131 -0.06522594 0.014274302
000080 93 55 80 bd 09 17 32 3d fb 97 ad bd 59 9f 1e 3d
       -0.06266322 0.043479 -0.084762536 0.038726185
000090 1a 1c e8 3d 22 a0 e0 bd d5 91 54 3d 56 8a 4d bc
       0.11333485 -0.10968043 0.05189689 -0.012545189
0000a0 36 3a 87 bd eb 65 24 3d 7f 23 87 3d db ed 0a bc
       -0.066029 0.04013626 0.06598567 -0.008479561
0000b0 6f 10 7b bd 3a 00 d9 3d 20 22 25 3d 2b 4f 9e 3c
       -0.06129497 0.10595746 0.040315747 0.01932486
0000c0 06 0b ed bc ce 02 ae 3d 29 a7 34 bd 2d 0a 4d 3d
       -0.02893592 0.08496629 -0.04410473 0.050058533
0000d0 71 d1 93 bd b6 e3 7d bd 15 13 15 bd 1e 85 b3 3d
       -0.07217682 -0.06198474 -0.03639515 0.087656245
0000e0 0e e2 87 3d 81 24 d9 3b 19 a1 21 3d 2b 61 e9 3d
       0.066349134 0.006626666 0.039460275 0.113954864
0000f0 c2 6d bb 3d e1 81 39 39 58 3b 7f b9 cc 04 05 3c
       0.09151794 0.00017691359 -0.00024340802 0.008118819
000100 58 56 c1 3d 69 69 aa 3d cf 9c ad bd 3b e8 e5 bd
       0.09440297 0.08320887 -0.084771745 -0.11225935
000110 ee 50 60 3b 83 69 bf 3d 7c cb ab 3a 34 92 a3 3d
       0.0034227925 0.09346297 0.0013106908 0.079868704
000120 0d 04 bc 3d 3d a0 e1 3d 6c d2 c6 bd 66 f7 c6 bd
       0.0918046 0.11016891 -0.097081035 -0.09715156
000130 08 47 54 3d e4 e4 ec 3c 1a 18 67 bd 31 dc 91 ba
       0.051825553 0.028917737 -0.05641947 -0.0011128244
000140 83 d6 9b 3c 2f a7 b1 bd de d7 9a bd 17 80 f4 3b
       0.019023186 -0.08674466 -0.07560705 0.0074615586
000150 9b cd d4 bb a4 1f c8 bb 94 38 ec bd 39 ee d0 3c
       -0.0064942366 -0.0061072875 -0.11534229 0.025504218
000160 4f c2 52 bd e7 c6 e8 3c 1a 22 f3 b9 ae 2f e3 3d
       -0.05145484 0.028415157 -0.0004637398 0.110930786
000170 e4 6f 8a 3d b7 5c 50 3d 83 d1 25 3d 77 ff a2 3d
       0.06759623 0.05086967 0.04048301 0.07958882
000180 93 d1 db bc cf fa 24 3c 4b dc ba bd 8b 3f b7 bd
       -0.026833331 0.010069563 -0.09124049 -0.08947667
000190 39 f3 9c bd ad 80 8b bc 30 1e 50 3c e7 89 f7 bc
       -0.076635785 -0.01702913 0.01270251 -0.030217124
0001a0 51 b3 d8 bd 8e 20 b3 bc 8b be 83 3c c6 9c a8 3d
       -0.10581077 -0.02186611 0.016082069 0.08233027
0001b0 a4 10 2c bd 00 d3 2c bd 45 81 05 3d 35 55 97 3c
       -0.042008057 -0.042193413 0.032593984 0.018473247
0001c0 27 cf d2 bd 5d ac b4 3d 8f 71 95 bc 01 b3 88 bd
       -0.102934174 0.08821938 -0.018242626 -0.06674767
0001d0 e8 9f 89 bc 3a 30 df bd f1 3d c5 bc 31 d4 b0 bc
       -0.016799882 -0.1089787 -0.024077388 -0.021585556
0001e0 d7 c4 bd 3d 47 8d a2 bd 7d 18 af bd 8e 70 c2 bd
       0.0926606 -0.07937103 -0.08549593 -0.09494124
0001f0 84 8e cf 3d ed d7 b5 3d e9 3a 36 3d ba b6 d9 bd
       0.101346046 0.08879075 0.044489775 -0.106305555
000200 81 59 bd bc 3f 58 87 3c cf e3 b7 3d b7 74 da 3d
       -0.023113968 0.016521571 0.08978998 0.10666793
000210 e9 89 ca bd da 44 6d 3c 36 c2 03 3d 0b 91 85 3d
       -0.098895855 0.0144817475 0.032167636 0.065218054
000220 56 93 0e 3d 00 56 67 3d 87 4d 7f bd 86 e6 b6 bc
       0.03480848 0.0564785 -0.062329795 -0.022326719
000230 7a ef 29 bd a1 06 c2 bc b3 7e 32 3d c1 44 b1 bb
       -0.04148815 -0.023684802 0.04357786 -0.0054098074
000240 1f 6c 93 3d 4f 5e 4a bd 72 17 e4 bd 4d db d4 3d
       0.07198357 -0.049406346 -0.11137284 0.10393391
000250 5c 26 64 bd b3 11 69 bd 17 b1 e3 3d 6e 86 0e 3d
       -0.055700645 -0.056901645 0.111177616 0.03479617
000260 68 03 99 3d 57 85 55 bd a4 7d d2 3b 8c cd 2f bc
       0.07471353 -0.052129116 0.006423669 -0.010730159
000270 64 ae e8 bd 28 8a c1 bc c7 2a e2 bd e9 03 dd 3c
       -0.11361387 -0.023625448 -0.110433154 0.026979404
000280 ef 37 0e 3d 08 46 db 3d dc b2 a2 3d d8 67 4d 3c
       0.03472131 0.10706717 0.07944271 0.012536965
000290 c2 0d 61 3d 8a 78 db bd 7c 6c 8d 3d 50 d8 3c bb
       0.05494476 -0.107163504 0.069054574 -0.0028815456
0002a0 ba 5d 4f 3d 9b f3 e6 3d 4c 5a 13 3d bf 7a bc 3d
       0.050626494 0.11276933 0.035974786 0.092030995
0002b0 6b c9 c6 3d 75 02 bc 3c ae a1 4b 3d a1 69 db bd
       0.09706386 0.02295039 0.049714737 -0.107135065
0002c0 fc 72 5b bd 44 0d b4 bd 26 73 70 bd ce 74 99 3c
       -0.053576455 -0.08791593 -0.058703564 0.018732455
0002d0 f5 27 8d 3d e3 0c 98 3d d5 1b cc 3b f8 59 54 3d
       0.06892387 0.07424333 0.006228904 0.051843613
0002e0 7f c5 a3 3d 19 fe a8 bd eb a1 48 3c 55 ec 86 3d
       0.07996654 -0.0825159 0.0122456355 0.065880455
0002f0 84 9c 89 bd f9 e5 b6 3c 3c ab cb bd da e7 98 3d
       -0.06719306 0.022326456 -0.0994477 0.07466097
000300 cf ff 82 3d 91 a5 87 bd 77 d2 f4 3c 74 5e fc 3c
       0.06396448 -0.06623376 0.029885514 0.030806758
000310 5c d3 79 3c 88 8b 8f 3c 7d 95 05 3d a7 4c e1 3d
       0.015248146 0.017522588 0.032613266 0.110009484
000320 31 dd e1 3d 80 8f a0 bc c6 8c be bc c7 42 8d 3d
       0.11028517 -0.019599676 -0.023260485 0.068975024
000330 8b 70 68 3d 5f 83 83 bd d2 33 a9 3d ee 2a 96 bd
       0.056747954 -0.064215414 0.08261837 -0.07332407
000340 83 4d ca 3d a8 dc b5 bd 00 20 4c 3c a2 c2 d9 3b
       0.098780654 -0.088799775 0.012458801 0.0066455165
000350 9d 0b 5c 3d 1c 4d 83 3d 09 f3 4c 3d 44 a5 3c 3d
       0.053722013 0.06411192 0.050036464 0.046056047
000360 de e5 dd 3c 66 82 b5 bd 46 23 13 bd b3 c1 af bd
       0.027087148 -0.08862762 -0.03592231 -0.08581867
000370 7d 8e bc 3b 43 81 09 bd 83 92 e3 bd c2 b4 94 bd
       0.0057542906 -0.03357054 -0.11111929 -0.07261039
000380 0c 36 d7 bd 34 5b 46 bd 4a a4 c8 3d 89 1d 83 3d
       -0.105083555 -0.04842682 0.09796961 0.06402118
000390 49 d0 9e 3c 91 19 df bd 00 fd 45 3c 43 6c a6 3d
       0.019386427 -0.10893548 0.012084246 0.08126118
0003a0 c8 46 e7 bd c4 0b 6b 3d 5a 6e 7e bb 60 7c c4 3c
       -0.11292797 0.057384267 -0.00388231 0.023985088
0003b0 8d 7b 4e 3d 6b 5e 9d 3d cd a0 7c 3d 4a dc 6e 3d
       0.050410796 0.076840244 0.06167679 0.058315553
0003c0 86 0b bb 3d 45 67 b8 3b 0c 08 b8 bd 47 a4 48 bd
       0.09133057 0.005627545 -0.0898591 -0.048984792
0003d0 09 af 74 3d 85 23 d2 ba d2 e0 5b bd 6f f4 dc bd
       0.05973724 -0.0016032314 -0.053681202 -0.107888095
0003e0 d0 54 e7 3c 90 bc c6 bb 18 29 b1 3d 4a ec 85 bd
       0.028238684 -0.006064959 0.08650416 -0.06539209
0003f0 58 d8 65 3d a1 cc 72 3d ce 17 15 3c 19 12 5e 3d
       0.056114525 0.05927718 0.009099914 0.054216478

pipes.0.0.bias f4 [8]
000000 df 98 eb bd f3 98 a2 3d 27 82 bc 3d c4 f0 9d bd
       -0.11503767 0.07939329 0.09204512 -0.07711938
000010 f7 c6 d4 3d d9 fb d9 bd 5a 9a 0a bd 82 4d 72 3d
       0.10389512 -0.10643739 -0.033838607 0.05915595

pipes.1.0.weight f4 [16, 8, 3, 3]
000000 8f 4e 22 bd b0 58 2b bd 27 c2 b6 bd 52 f8 f2 bc
       -0.0396257 -0.041832626 -0.0892375 -0.029659424
000010 24 9d 36 bd 72 4e 0d bd cf 76 ea 3d bf 96 e5 3d
       -0.044583455 -0.03449864 0.11448442 0.11210393
000020 d1 f1 f4 bb 65 4b f0 3d 01 b5 7b bd 4f b7 5b 3d
       -0.007475116 0.1173313 -0.061451916 0.053641614
000030 fe 60 da 3d a0 e2 0f bd 80 35 88 3d 4b c3 04 bd
       0.10663031 -0.035128236 0.06650829 -0.03241281
000040 9a bc bf bd a2 40 ae 3b f6 02 43 bd 1d a9 f8 bc
       -0.09362145 0.0053177634 -0.047610246 -0.030354077
000050 56 18 c0 bd 6d 87 b2 bd a8 c7 8b 3d c0 30 e1 bd
       -0.09379642 -0.08717237 0.06825191 -0.109956264
000060 df 2e 76 3d 6a c8 a2 3d 89 5a b8 bd 98 f7 70 ba
       0.060103294 0.07948382 -0.09001643 -0.0009192168
000070 39 aa e3 3d af ff 8e 3d 3d f2 42 3c 28 3a 8f ba
       0.11116452 0.069823615 0.011898574 -0.0010927366
000080 e4 c5 d4 3d d4 03 1d bd 3b 8a 87 3c 46 b3 98 3d
       0.10389307 -0.03833373 0.016545406 0.07456069
000090 16 ba 8d 3d fa 9e cf 3d af dc a0 3d 09 29 2b 3d
       0.06920259 0.10137744 0.07854592 0.04178718
0000a0 dc 07 e4 bd 42 ea 2b 3d ca 47 8a 3d a9 1a a1 3d
       -0.111343116 0.041971453 0.06751974 0.07866413
0000b0 3b c5 c2 3c 57 64 6c 3d 65 d7 a4 3d 11 74 2d 3d
       0.023775687 0.05771288 0.08048896 0.042347018
0000c0 bd b4 9f bc 48 36 8e 3d 5e 58 8f 3d 3c d2 1e 3d
       -0.019495362 0.06943947 0.069992766 0.038774714
0000d0 35 82 2a bd d5 bc 4c bd 06 ca ba 3b fa 30 11 3d
       -0.04162808 -0.04998477 0.0057003526 0.0354471
0000e0 a9 0a 2b bb db 34 7b 3d d1 8b e3 bc e9 dc 07 bd
       -0.0026098883 0.061329704 -0.02777663 -0.03316966
0000f0 8e ea fa bc 34 98 48 3d fa 37 54 bd 27 aa af 3d
       -0.030629423 0.048973277 -0.051811196 0.08577376
000100 54 c8 8a 3d de 21 dd bd bd 53 51 bc 3d cc dd bd
       0.06776491 -0.10797475 -0.012776312 -0.10829971
000110 c8 9e e1 3c 7b fe cb bd be 0e 2f 3d 59 a1 59 3c
       0.027541533 -0.09960648 0.04273867 0.013283097
000120 cc 15 5e 3d 06 b0 f6 3c 2a 1b c6 3d f2 c7 ac bd
       0.054220006 0.030113231 0.0967315 -0.08436574
000130 37 2a 2e 3d da 6d a8 3d d2 b4 5e 3d e7 a9 67 3d
       0.042520728 0.082240775 0.054371662 0.056558516
000140 19 e0 89 3d bc 7c 49 bd 20 c3 04 3c 55 ec bc 3d
       0.06732196 -0.04919122 0.008103162 0.09224764
000150 ea 17 82 bd 14 b0 9c 3d b9 73 08 bc e5 31 eb 3d
       -0.063522175 0.07650772 -0.008328372 0.11484126
000160 1f a0 0f bd 28 28 5a 3d 18 9b 15 3d 77 c4 b7 3d
       -0.035064813 0.053260952 0.036524862 0.089730196
000170 58 11 c9 3c 57 34 cb bd 76 54 45 3d 97 c1 96 bd
       0.024544403 -0.099220924 0.04817625 -0.07361143
000180 b6 87 de bb e0 6c d4 bd 8d 10 90 3d c9 78 7e 3d
       -0.0067910803 -0.10372329 0.07034407 0.06212691
000190 83 be 6f 3d ee 74 c4 3c e0 fc b1 bd e9 99 ed 3d
       0.058531296 0.023981538 -0.0869081 0.11601622
0001a0 99 b4 de 3d a8 b4 b0 3d 74 30 82 bd ba 25 ac bd
       0.1087429 0.086282074 -0.06356898 -0.08405633
0001b0 79 83 e0 3c 8a 6e 99 3d c2 a8 b1 bd e9 2f b2 3d
       0.027406441 0.07491787 -0.08674766 0.087005444
0001c0 8d fb a3 3d fd 62 b0 bd 78 84 c8 bc 69 cf f3 bc
       0.08006964 -0.086126305 -0.024477229 -0.029761987
0001d0 ec 17 d5 bc 00 02 75 bd 23 28 a5 bd 41 91 d2 bd
       -0.026012383 -0.05981636 -0.08064296 -0.10281611
0001e0 70 fd e3 3c 93 cb 58 3d cd 46 89 3b 5a 3d 64 3d
       0.02783081 0.05292852 0.0041893483 0.055722572
0001f0 4d 9e be 3d 8f ed b7 bd 47 ce b2 bd 4f f2 7c bd
       0.09307537 -0.089808576 -0.087307505 -0.06175452
000200 df ee c2 3d d4 71 a3 bd f6 25 36 bd c2 29 9a 3d
       0.09518217 -0.07980695 -0.044469796 0.07527496
000210 39 53 34 3d 5e 6e af 3d b0 70 d6 bd 24 05 d3 bd
       0.04402468 0.08565973 -0.10470712 -0.10303715
000220 19 55 c9 3d ce b8 be 3d b8 fd 49 3d e0 48 61 3d
       0.09830684 0.093125924 0.04931423 0.05500114
000230 72 53 00 3d 37 dc 77 bd 9f fa 88 3d 2f d7 a9 3d
       0.03132958 -0.060512748 0.06688427 0.08292996
000240 fc ab 3d bd ca 3f a6 3d 52 68 8d bc e6 ca 65 bc
       -0.046306595 0.081176355 -0.017261658 -0.014025426
000250 52 78 57 bd 3a ef 74 bd f9 1d 2d bd 22 76 c1 3d
       -0.05260498 -0.059798457 -0.042264912 0.0944636
000260 eb b1 83 3d 3b 07 54 3d e3 82 b2 bd f7 2a 69 3c
       0.064304195 0.051764708 -0.08716371 0.014231435
000270 9a c0 f7 bc c9 ea ee 3c 61 01 05 3d 66 05 ed bd
       -0.030243207 0.029164689 0.03247202 -0.11573295
000280 2d cc df 3c e7 83 a5 3d f6 19 d0 3d 99 77 1b 3d
       0.027319038 0.08081799 0.10161202 0.037955854
000290 fc 96 1e 3d 5c 69 d8 3d 28 89 cf bd 39 a1 8f bc
       0.03871821 0.10566971 -0.10133582 -0.017532932
0002a0 3f d4 85 3c 28 6a 7e 3d 42 33 c7 bd 26 c4 99 3c
       0.016336558 0.062112957 -0.097265735 0.018770289
0002b0 bf 7a 8d 3d 94 53 6b 3d 51 6b 79 bd 4a 4b a3 3d
       0.069081776 0.057452753 -0.06089336 0.079733446
0002c0 df 12 56 bc 9f 59 9d bd bd 36 cc 3d fe f5 50 3d
       -0.013066023 -0.076831095 0.09971378 0.051015846
0002d0 e8 b8 ce bd 49 48 f3 bc 31 d9 ce 3d ef 3b fc 3c
       -0.10093862 -0.029697554 0.1010002 0.030790297
0002e0 0e e4 24 3b 2a 50 99 3d 39 fe a6 3d 5a e7 e5 bc
       0.0025160345 0.07485993 0.08153958 -0.028064419
0002f0 65 a6 9d bd 53 cf 60 3d d2 24 d9 bd ac 25 d2 bd
       -0.07697753 0.05488522 -0.10602726 -0.102610916
000300 99 7b b8 3d b7 84 93 3d 96 dc ec 3d 08 fb e6 3d
       0.090079494 0.07203048 0.11565511 0.11278349
000310 e6 ec 65 bd 25 ef 9f bd 8f cd 2c bd e7 88 be bd
       -0.056134127 -0.07809285 -0.042188223 -0.09303456
000320 81 f8 57 3d a3 b7 56 3d 62 c7 ba bc bd 08 a3 3d
       0.052727226 0.052421223 -0.022800151 0.07960651
000330 90 42 94 3d 1b f9 40 3d 4d e3 ca 3d b7 3f 13 bc
       0.07239258 0.047112565 0.099066354 -0.008987359
000340 e5 7d cf bd 01 61 bc 3c fa 09 b7 bd 79 5b 9d bd
       -0.10131434 0.022995474 -0.0893745 -0.07683463
000350 e9 63 ac bd 80 5e 7c 3b 39 0c 2d 3c 3f ed c9 bc
       -0.08417494 0.0038508475 0.010561996 -0.02464926
000360 c6 e5 a6 3d d9 12 82 bd cb 0f 8a 3d cc f2 83 3d
       0.081492946 -0.06351251 0.067412935 0.06442794
000370 a5 52 a4 bc e0 27 88 3d 26 c1 c9 3d 3a 3a 1d bd
       -0.02005894 0.066482306 0.09851293 -0.038385607
000380 c0 d0 3d bd fc f4 46 3d 8b a8 bd 3d 35 67 a6 3d
       -0.046341658 0.04857348 0.09260663 0.08125154
000390 73 a0 90 3d a2 b4 74 3d fc dd 69 bc 16 0e 36 3d
       0.07061853 0.059742577 -0.014274117 0.044447027
0003a0 b8 14 bb bc 74 9b a8 3d 1f f7 9f 3d 7a 1c 59 bd
       -0.022837028 0.08232775 0.078108065 -0.053005673
0003b0 42 f4 93 bd d2 78 3b bd 33 2f 87 bc ec 6d b8 bd
       -0.07224323 -0.04576952 -0.016501999 -0.09005341
0003c0 5c de cc 3d d3 f2 b1 bd 3d 9b b7 ba cb 9d 1e bd
       0.10003349 -0.08688893 -0.0014008057 -0.0387247
0003d0 d6 f7 b4 3d c0 0a a1 bd 3b 50 80 3d 0e 6e 3b 3d
       0.088363335 -0.078633785 0.06265303 0.045759253
0003e0 08 58 39 bd db 8f 8f 3b 57 ca c3 bd 7b c1 3b 3d
       -0.04524997 0.0043811626 -0.09560078 0.045838814
0003f0 37 05 ed bd 91 10 49 bd c1 81 9b 3c 86 3d c5 3d
       -0.1157326 -0.049088065 0.01898277 0.09630875

pipes.1.0.bias f4 [16]
000000 07 f1 b6 bd 5a 8d cf 3c 09 66 75 3d f0 4e 2c 3d
       -0.08932691 0.025335956 0.05991176 0.04206747
000010 b0 9e 38 3d 9c 51 c2 3d d2 3f 95 bc be 33 bd 3d
       0.04507321 0.09488222 -0.018218908 0.09238385
000020 04 28 b3 3d c8 b0 72 bd e7 d0 c6 3d 43 81 ee 3d
       0.08747867 -0.059250623 0.09707814 0.116457485
000030 a9 c3 d6 3d c6 80 21 3d c6 d2 dc bd 5f 3d e3 bd
       0.10486538 0.03942945 -0.10782389 -0.1109569

pipes.2.0.weight f4 [32, 16, 2, 2]
000000 49 9e 49 bd bc 15 fa 3d a8 e1 25 3d d8 12 ee 3c
       -0.049223218 0.12211177 0.040498406 0.02906172
000010 03 19 c2 3d 0b b3 b0 bd e7 09 5d bd 2c 47 f6 bc
       0.09477427 -0.086279 -0.05396452 -0.030063234
000020 59 fd 3d bd 4b 29 f3 bd 1d ab 50 3d b6 9e ce 3b
       -0.04638419 -0.118731104 0.050944436 0.006305541
000030 91 bb 82 bc 2d d9 a2 3d b1 3f bd bd ae 14 b4 3c
       -0.01595858 0.07951579 -0.09240664 0.021982517
000040 a4 54 46 3d 39 d1 4f 3d 07 27 1d bd 0a 5f 08 bd
       0.048420563 0.05073664 -0.038367298 -0.03329376
000050 6a ef e7 3d 72 da 14 bd 1c 22 58 3c 8e 29 e5 3d
       0.113249615 -0.03634114 0.013191726 0.111895666
000060 d9 5e d0 3d b5 c2 4c bd 5f 40 43 3d ee ef fd bd
       0.10174341 -0.049990375 0.04766881 -0.123992786
000070 91 98 53 bd b2 d5 bb bd e4 6e 4f bc bf f0 d0 bd
       -0.05165917 -0.091716185 -0.012660716 -0.10202169
000080 69 65 12 bc f6 a1 b5 3d 65 0c f9 bd bf a8 ba 3c
       -0.008935311 0.08868782 -0.12160567 0.022785543
000090 a0 74 f7 bc f9 f1 f1 3d 3a eb 98 3d b4 17 5c 3d
       -0.030206978 0.11813731 0.07466741 0.053733543
0000a0 77 2b 00 be 87 a2 96 bd b8 e6 d7 3d 62 7c 90 bc
       -0.1251658 -0.073552184 0.10542053 -0.017637435
0000b0 d3 68 5f bd bc be e6 bd bf a2 2b 3d fe 88 81 3d
       -0.054543328 -0.112668484 0.041903254 0.06324957
0000c0 87 e2 98 3d bd dd 88 3c 9a 66 aa 3d 21 d5 1e bd
       0.07465082 0.016707296 0.08320351 -0.038777474
0000d0 56 60 2f bc 38 59 f6 bc 13 85 ef 3d 9b 90 23 3d
       -0.010704121 -0.03007184 0.11695304 0.03993283
0000e0 e8 89 0e 3d ef 7f 32 bd e7 da 9d bd 73 39 de 3d
       0.034799486 -0.04357904 -0.07707768 0.10850801
0000f0 f5 c9 c4 bd 59 d8 b3 3d 2c 3e 8e bd 87 ff 7a 3d
       -0.09608833 0.087814994 -0.06945452 0.061278846
000100 bc cb 86 bd a4 9a 7e bd 41 72 ae 3c f1 e3 3a bd
       -0.06581828 -0.062159196 0.021294715 -0.045627538
000110 78 f4 6e bd df d6 10 3d fd de 5c 3d bb f3 f7 3d
       -0.058338612 0.035361167 0.053923596 0.12107035
000120 65 e6 1c 3d 14 8e 5e bd c8 7f 1b 3d e0 e0 3c ba
       0.03830566 -0.054334715 0.03796366 -0.000720514
000130 c7 4d fe 3d 7b 62 33 3d ea bc 24 bd 9d 23 71 3d
       0.124171786 0.04379509 -0.040219225 0.058871854
000140 a6 12 99 bd 14 7d aa bd 6b a9 2c bd 47 43 8d bd
       -0.0747426 -0.08324638 -0.042153757 -0.06897598
000150 38 d4 c5 3d 5d b5 8c bb e6 3d cb 3d ff 8f 86 3d
       0.09659618 -0.004294081 0.099239156 0.06570434
000160 f1 68 0b 3d 76 da b7 3a 39 9f 67 bd 6b c3 1f bd
       0.034035627 0.0014026898 -0.05654833 -0.039004724
000170 4d 5f f8 bd 4a 49 fc 3b 21 1d c2 bc 20 fa 3b 3d
       -0.12127552 0.0076991664 -0.02369553 0.045892835
000180 f2 9f ed 3d aa 5d 15 3d ae 56 db bd 13 ef 04 bd
       0.11602773 0.036466278 -0.10709892 -0.03245456
000190 3c c0 eb bd db 1d 15 bd a1 9e 21 ba c4 b7 f5 bd
       -0.11511275 -0.036405426 -0.00061653 -0.11997941
0001a0 e3 76 a1 3d 42 7c a7 3d 2f 1b d6 3b 81 38 94 bd
       0.07884004 0.08177997 0.0065340023 -0.0723734
0001b0 cd 57 9e 3d 0a 88 99 3d 5d 2e c8 3d fd c4 a2 3d
       0.077315904 0.074966505 0.09774468 0.07947729
0001c0 9f 8a 86 bd c6 aa a6 bd d7 a2 92 3c 7d 2f 37 3d
       -0.065694086 -0.08138041 0.017899914 0.044723023
0001d0 f1 d6 c6 bc 08 52 dc bd 70 7b e9 3d 77 b2 26 bd
       -0.024272414 -0.10757834 0.11400497 -0.04069754
0001e0 b3 10 e4 bd 23 f0 b2 3a c1 3b 91 bd 7a b4 e2 3c
       -0.111359976 0.0013651889 -0.07091475 0.027673949
0001f0 83 62 99 3d 85 71 93 bc 17 c4 e4 3d 51 32 9d 3d
       0.07489493 -0.017998466 0.11170214 0.07675613
000200 60 a8 2c 3d f4 21 1e 3d f1 e8 b6 3d a3 9f f3 3d
       0.042152762 0.0386066 0.08931149 0.11895683
000210 15 68 72 bd d2 dc 37 3d c6 78 e2 bd 6d 5a 3d bd
       -0.05918129 0.044888325 -0.11058192 -0.046228815
000220 ba de db 3d da 7d c3 bd 52 33 e4 bd 7f b4 0f 3d
       0.10735841 -0.09545489 -0.11142601 0.035084244
000230 58 46 dd bd 76 ef 82 3d b5 28 cd 3d 24 5a f0 3d
       -0.10804433 0.0639333 0.1001753 0.11735943
000240 92 14 07 3c 67 a9 d8 bc 23 d4 d2 bd 1a 48 0d 3d
       0.00824465 -0.026447965 -0.10294368 0.03449259
000250 fb 2d 93 bd 7d 56 d4 bd 17 6c b9 3c 69 32 c9 3d
       -0.071865045 -0.10368059 0.022634549 0.09824068
000260 e2 84 df 3d a5 32 29 3c fe cd ea 3d 2a 9d 0d 3d
       0.10914017 0.010327016 0.11465071 0.03457371
000270 12 d7 da 3d 3a bc 02 3d ab ed 88 3c 0c d5 f9 bd
       0.10685553 0.031917788 0.016714891 -0.121988386
000280 ea 1e 5b bb d5 19 b5 bd 67 88 84 3d d8 91 04 3d
       -0.0033435174 -0.08842818 0.06471329 0.03236565
000290 32 84 c0 3d 1b ce 47 3d c9 e4 37 3d 74 e7 41 3d
       0.09400214 0.048780542 0.04489592 0.04733987
0002a0 a7 96 82 bc 7c 81 c5 bd 18 32 e3 bc f4 a2 37 bd
       -0.015940977 -0.09643838 -0.027733847 -0.04483314
0002b0 10 93 7a 3d b9 7e 81 bd 97 5f 36 bd d3 d8 89 bd
       0.061175406 -0.063229986 -0.044524755 -0.06730809
0002c0 ba 43 81 bd 2d a9 bb 3d a7 b3 b4 3d 2e 85 0b 3d
       -0.06311746 0.09163127 0.088233285 0.034062557
0002d0 8a f8 db bd fd c5 ab 3d d8 8c 47 bd c0 a0 f4 bd
       -0.107407644 0.08387373 -0.048718303 -0.11944723
0002e0 3e cd 2f bd 07 28 12 bd 42 d9 08 3c 0f 6b ee bd
       -0.042920344 -0.035682704 0.00835258 -0.116415136
0002f0 60 6c 12 3c 50 34 d2 bd 80 fd 5c 3d bc 13 a4 3d
       0.008936971 -0.10263884 0.053952694 0.080115765
000300 fc 0b 68 bd 98 10 ac 3d 58 2c b8 bd 68 64 d7 bc
       -0.056652054 0.084016025 -0.08992833 -0.026292995
000310 ce e6 f1 3d dc fd 6c bd c8 71 aa 3c 5c 6a 8c 3d
       0.118116006 -0.057859287 0.020806208 0.06856224
000320 1c e9 e9 3d 2e 60 95 bd 76 58 f9 bd 7a fa 93 3d
       0.11421415 -0.072937354 -0.12175076 0.07225509
000330 bc 0b ce bd f2 3c 95 3d 80 14 77 bd 38 96 91 3d
       -0.10060832 0.07287015 -0.060322285 0.0710873
000340 80 68 18 3d 00 67 f3 3b e0 1e 8b 3b cc 17 43 bd
       0.037209034 0.00742805 0.004245624 -0.047630116
000350 e0 c5 a7 bc 20 0e b6 bb 1c 33 98 3d 54 72 29 3d
       -0.020480096 -0.005555883 0.07431623 0.041368797
000360 10 43 b1 bd ae ae b0 bd 20 27 c5 3c 2e f3 d8 bd
       -0.08655369 -0.086270675 0.024066508 -0.10593258
000370 30 e2 00 bd 3a 1e e9 bd a0 17 cd bb 7e bf 8d 3d
       -0.03146571 -0.113827184 -0.00625892 0.0692129
000380 62 23 c3 bd 2a 56 d2 bd 52 6d 89 3d 10 9e 5d bc
       -0.09528233 -0.10270341 0.06710304 -0.013526455
000390 d4 69 33 3d 46 26 c5 3d 18 26 41 bd dc 6f 1d bd
       0.043802097 0.09626441 -0.04715547 -0.038436756
0003a0 5c 2e 44 3d 80 20 b4 ba 82 57 a6 bd c4 f5 b3 bd
       0.047895774 -0.0013742596 -0.081221595 -0.087871104
0003b0 78 85 4f bd d0 0b b5 bd f8 dc 4d bd e0 ff 37 bc
       -0.050664395 -0.08840144 -0.05025956 -0.011230439
0003c0 80 8c ed bb c0 34 fe 3c 80 ce 5d 3d 34 df 0a bd
       -0.007249415 0.031031013 0.054152012 -0.03390427
0003d0 10 24 16 3d 04 f9 82 bd 6c 2f c5 bd 70 be d3 3c
       0.036655486 -0.06395152 -0.09628186 0.025847644
0003e0 90 a4 ff 3c 8c ef 26 3d d8 dd a5 3c 48 57 a1 3c
       0.0312064 0.040755793 0.020247385 0.01969494
0003f0 42 ee 91 3d f6 4b a1 bd 74 80 0b 3d 50 97 b3 3d
       0.07125522 -0.078758165 0.03405805 0.08769095

pipes.2.0.bias f4 [32]
000000 23 a7 b5 3b 29 cf 19 3d 3c e7 27 3c 18 b4 bd 3c
       0.005543606 0.03755108 0.010248002 0.023157164
000010 fd 4e 68 bc 5e b8 2e 3b 5d 64 68 3d 18 bd 91 bd
       -0.0141789885 0.0026660184 0.05673634 -0.07116145
000020 2d 4a 27 bd 14 12 74 bd 6b 00 c2 bc 9d 7f ad 3d
       -0.040842224 -0.059587553 -0.02368184 0.08471606
000030 6c 04 4c bd d7 20 de 3d d4 2b f4 bd 00 ca ec 3d
       -0.049808905 0.108461075 -0.11922422 0.11561966
000040 be 6d 36 3d c0 fb 1b 3c 16 a8 e9 bd d1 33 d3 3c
       0.044538252 0.009520471 -0.11409013 0.025781544
000050 d6 ee b6 3d a9 97 50 3d 66 8e 8b bd 5c 89 38 bd
       0.08932273 0.050925884 -0.0681427 -0.04505287
000060 ba 56 c9 3d 6c 1b 3b bd 01 86 ca 3d 2d 1a b3 3d
       0.09830995 -0.04568045 0.098888405 0.08745227
000070 b4 fb 56 bd 96 43 b0 bc 7e e5 d0 3d d7 cb af 3d
       -0.052486137 -0.021516602 0.10200022 0.08583801
