assign3_convolution_nn/archive/best101.pth (torch_old, 38401 bytes, 14 tensors)

pipe1.0.weight f4 [8, 3, 5, 5]
-0.054763407 -0.09413786 -0.10505986 0.08804767 0.015433079 0.108806744 -0.07013345 0.102898166
-0.05249937 -0.057003282 -0.011442103 -0.09934285 -0.04641593 -0.003407175 0.006983187 0.08148747
-0.038863778 0.01337385 0.037300296 -0.07357729 -0.042580526 -0.017273486 0.049689375 0.025506934
-0.11463877 0.076332174 -0.10938783 0.0033406422 0.10469618 -0.030189078 0.0149874985 -0.090905435
-0.04661456 0.017454298 -0.050912164 0.11004379 -0.010447691 -0.104052514 0.015033401 0.080756515
-0.040060174 -0.024758285 0.03807925 0.10106815 0.0700697 0.032931797 0.108702734 0.03974526
0.10238323 -0.062667735 -0.09346169 -0.04394327 0.09747849 -0.015129725 -0.04891393 -0.09238369
0.014907353 -0.08807512 0.0795677 0.053147282 0.09010535 0.05564513 0.0912574 -0.023702847
0.07230869 -0.021244606 -0.07102001 0.00089695473 -0.061493088 -0.039510652 -0.072066285 0.10651349
-0.021202253 -0.0004782156 0.08657042 -0.10855493 0.09809693 -0.0576788 -0.042245973 -0.00061723817
0.05627938 0.016514203 -0.050570525 0.081848755 0.057227023 -0.07441764 -0.011654615 0.06762614
-0.039728686 -0.06663826 -0.10647931 0.07782207 -0.018967727 -0.058567986 -0.10107499 0.08226058
-0.100511804 -0.008647463 -0.01773036 0.10455259 -0.0029552178 0.020805007 -0.10946042 -0.078197636
0.09538213 0.08832765 0.05079266 -0.016712874 0.023214756 -0.06019116 -0.07111055 -0.014762298
0.0997778 0.030849418 -0.038790528 0.016313056 -0.10645461 -0.019444698 -0.059005234 0.0642788
0.10200314 0.07007796 0.037441306 -0.06274714 0.018803634 0.1008874 -0.010957091 0.068923034
0.006162732 0.035191003 0.068906225 -0.0529962 -0.07930207 -0.035801224 -0.11088281 0.014746793
-0.005899191 -0.02431356 0.111149445 -0.04700794 -0.043850437 0.099727824 0.0071781036 -0.0205117
0.0135310395 -0.06400403 0.06231904 -0.078964256 0.0749821 0.035899233 0.11097043 -0.030303635
-0.08055667 0.10044788 -0.01076844 0.026423734 0.04776219 0.06125026 0.017368177 0.01876807
-0.097747765 0.09209802 -0.029553287 0.09814339 -0.040667273 -0.010481708 -0.02654125 -0.08083728
-0.08815905 -0.09503835 0.0013194508 0.058228426 0.06491564 0.007974723 -0.102289855 -0.09285657
-0.0023396546 -0.055066895 0.03867609 0.05824817 0.09670408 -0.08736797 0.042807687 0.07976023
-0.0118555715 -0.09324617 0.09397837 -0.0283427 0.07749597 0.059532024 -0.040987357 -0.09040747
-0.037375562 -0.01724348 0.09378907 0.10511022 0.06574328 0.025957843 0.058521867 -0.05079614
0.039886132 -0.033165623 -0.07327769 0.027393224 0.051741235 -0.062279727 -0.056904595 0.055364907
-0.07228615 0.0064208596 -0.09778074 -0.06882034 0.029580643 -0.027725704 0.02696786 0.09181732
-0.101781845 -0.08059363 0.08829957 0.006735325 -0.109211534 0.0287382 -0.07544971 -0.089079306
-0.09735012 0.09621495 -0.00847791 0.07668954 0.044901095 -0.055287257 0.099653006 -0.07127745
-0.099085614 -0.028327024 -0.07592414 -0.025223358 0.03681691 0.09208365 0.040126037 -0.09400858
-0.004660226 0.07356968 -0.097044066 0.0115282815 0.062088095 -0.0550982 -0.07284955 -0.02067963
0.10038442 -0.018739201 -0.04412018 0.11481011 -0.1023516 -0.019959534 -0.075898424 0.08367541
00000000: 984f 60bd 5acb c0bd a029 d7bd 5652 b43d
00000010: 06db 7c3c 12d6 de3d 20a2 8fbd 46bc d23d
00000020: 9409 57bd 467c 69bd a977 3bbc 4474 cbbd
00000030: a11e 3ebd e94a 5fbb 38d3 e43b e7e2 a63d
00000040: a02f 1fbd fe1d 5b3c 32c8 183d b1af 96bd
00000050: eb68 2ebd 2081 8dbc 1687 4b3d ebf3 d03c
00000060: bbc7 eabd 0b54 9c3d ba06 e0bd adee 5a3b
00000070: f36a d63d 164f f7bc 208e 753c a12c babd
00000080: e9ee 3ebd 51fc 8e3c 4689 50bd a35e e13d
00000090: cb2c 2bbc 7c19 d5bd a74e 763c ac63 a53d
000000a0: 2316 24bd e3d1 cabc fdf8 1b3d d1fc ce3d
000000b0: b480 8f3d 7ee3 063d 8a9f de3d edcb 223d
000000c0: 4dae d13d f157 80bd d868 bfbd dcfd 33bd
000000d0: cda2 c73d abe2 77bc f959 48bd a933 bdbd
000000e0: f83d 743c ba60 b4bd 64f4 a23d f7b0 593d
000000f0: 2789 b83d 26ec 633d 29e5 ba3d 792c c2bc
00000100: 9416 943d 2b09 aebc f072 91bd 9d21 6b3a
00000110: 2de0 7bbd ecd5 21bd 7d97 93bd bf23 da3d
00000120: 59b0 adbc 03b9 fab9 d54b b13d 0c52 debd
00000130: 0be7 c83d 9b40 6cbd 1d0a 2dbd 27ce 21ba
00000140: 3585 663d cb48 873c 0a23 4fbd 52a0 a73d
00000150: e266 6a3d 4768 98bd 00f3 3ebc 937f 8a3d
00000160: 8cba 22bd a479 88bd d311 dabd 2d61 9f3d
00000170: 3562 9bbc fce4 6fbd 6800 cfbd 3c78 a83d
00000180: 22d9 cdbd 17ae 0dbc 433f 91bc ab1f d63d
00000190: 54ac 41bb 436f aa3c c92c e0bd 1526 a0bd
000001a0: b557 c33d 21e5 b43d f70b 503d 70e9 88bc
000001b0: df2c be3c 018b 76bd 68a2 91bd 91dd 71bc
000001c0: 4e58 cc3d ebb7 fc3c d1e2 1ebd f5a2 853c
000001d0: e004 dabd 7d4a 9fbc 79af 71bd 9aa4 833d
000001e0: 06e7 d03d 0985 8f3d 0e5c 193d 9381 80bd
000001f0: 140a 9a3c 0e9e ce3d 5f85 33bc 8527 8d3d
00000200: bef0 c93b 7124 103d b51e 8d3d 8b12 59bd
00000210: 2069 a2bd 4ea4 12bd 8716 e3bd 889c 713c
00000220: 004e c1bb 3b2d c7bc 52a2 e33d 668b 40bd
00000230: 849c 33bd 1a3e cc3d 4c36 eb3b 2708 a8bc
00000240: 4bb1 5d3c 8b14 83bd 4042 7f3d 03b8 a1bd
00000250: 3790 993d 130b 133d 7744 e33d 543f f8bc
00000260: e5fa a4bd 9eb7 cd3d 1c6e 30bc 9676 d83c
00000270: 49a2 433d 8de1 7a3d b547 8e3c 7fbf 993c
00000280: fb2f c8bd e39d bc3d bc19 f2bc 67ff c83d
00000290: ba92 26bd 78bb 2bbc 096d d9bc 048e a5bd
000002a0: bb8c b4bd 77a3 c2bd 6cf1 ac3a ee80 6e3d
000002b0: 7ef2 843d 6aa8 023c 587d d1bd 962b bebd
000002c0: e454 19bb d38d 61bd d26a 1e3d a295 6e3d
000002d0: ca0c c63d faed b2bd 1d57 2f3d 5559 a33d
000002e0: df3d 42bc d9f7 bebd bb77 c03d f32e e8bc
000002f0: 35b6 9e3d dad7 733d 5ce2 27bd 8d27 b9bd
00000300: 1e17 19bd 3342 8dbc 7c14 c03d 0744 d73d
00000310: 6aa4 863d 8ba5 d43c a0b4 6f3d 9d0f 50bd
00000320: a45f 233d add8 07bd 9d12 96bd c167 e03c
00000330: 9eee 533d 0719 7fbd cb14 69bd 50c6 623d
00000340: c30a 94bd 1366 d23b 4541 c8bd aef1 8cbd
00000350: 1b53 f23c 0421 e3bc b4eb dc3c b80a bc3d
00000360: 0073 d0bd 460e a5bd 68d6 b43d 00b4 dc3b
00000370: 4caa dfbd 606c eb3c 6185 9abd 366f b6bd
00000380: 805f c7bd 580c c53d efe6 0abc 680f 9d3d
00000390: 36ea 373d e474 62bd e016 cc3d e9f9 91bd
000003a0: 66ed cabd 130e e8bc 1e7e 9bbd 37a1 cebc
000003b0: 54cd 163d 5a96 bc3d 335b 243d 9287 c0bd
000003c0: cfb4 98bb b3ab 963d 0abf c6bd 1ee1 3c3c
000003d0: 1650 7e3d a6ae 61bd 2532 95bd 5468 a9bc
000003e0: 5996 cd3d f482 99bc 5db7 34bd 9021 eb3d
000003f0: b79d d1bd 2d82 a3bc a270 9bbd 035e ab3d

pipe1.0.bias f4 [8]
0.030747058 0.059947014 0.022155378 0.025119169 -0.015969288 -0.0061967704 -0.03639549 0.09549874
00000000: 41e1 fb3c 008b 753d 327f b53c b7c6 cd3c
00000010: 06d2 82bc 470e cbbb 7013 15bd d894 c33d

pipe2.0.weight f4 [16, 8, 3, 3]
0.11024734 0.09787182 -0.053237807 -0.056125585 -0.028814312 0.061238963 0.098279916 -0.1083754
-0.009237329 0.05836611 -0.009614404 -0.09933796 0.086851604 0.034971822 0.011957288 0.04763856
0.03356902 -0.038144365 0.104714945 -0.03034839 0.009357619 0.043154366 -0.03690471 0.08872759
-0.103559375 -0.011748826 -0.009359728 -0.061584115 -0.007973396 -0.012673852 -0.09925957 -0.09066978
-0.06603095 0.0722284 0.11575048 -0.083986625 -0.10466224 -0.015173153 -0.07942939 -0.048487205
0.02149768 -0.11436688 -0.025977636 0.04658288 0.012165092 -0.10484538 -0.029347058 -0.092647366
-0.029538503 0.00781639 0.105863795 0.08174619 -0.016556967 0.0810456 -0.10107765 -0.005371621
-0.07706243 -0.024901923 0.06989298 -0.0035602555 0.0018794717 -0.08472663 0.09036898 0.08101156
0.04482604 0.003018536 -0.062557034 0.057142686 -0.112659775 -0.103685476 -0.10966339 -0.030874906
0.06426066 0.03578347 -0.04429226 0.020495912 0.09050287 -0.013064533 0.006925133 -0.069093436
-0.028894605 -0.110997796 -0.10426307 -0.081291 0.04125461 0.047739238 -0.06504751 0.002806103
-0.061038077 -0.066132255 0.057565875 0.08888874 0.06807272 0.049507514 -0.08956773 -0.08793129
-0.04186282 0.029226916 -0.07085329 0.07398426 0.074249454 -0.06892239 -0.049296886 0.09755445
0.047222387 0.0185656 -0.044541426 -0.10235998 -0.058026556 -0.050652612 0.066588596 0.059527837
-0.09619501 -0.08596311 -0.01280727 -0.088255815 0.04742687 -0.10291447 0.04387863 -0.03680195
0.086927265 0.08580865 0.1106491 -0.023471637 0.09044436 0.093885176 0.056533445 0.017844168
0.051646296 0.07007174 -0.0031787183 0.010613471 -0.10775482 0.061823674 -0.03703167 -0.113116376
0.07607802 -0.11017452 -0.10585169 0.10083407 0.090160124 -0.0845857 -0.065333 0.11068315
0.046104494 0.013662132 0.097607575 -0.03582178 0.07231626 -0.07145965 -0.016115433 0.030190773
-0.0461746 -0.06452263 0.11247311 -0.06184812 -0.094730444 0.0596854 0.0077978475 -0.101918705
0.10601496 0.082346104 0.11454285 -0.1166934 0.116759144 0.10902219 -0.030144174 0.083000995
-0.09582307 0.06557348 0.0036042007 0.05307972 0.035032526 0.09956897 0.016377898 0.0030044988
-0.09153193 0.07411505 0.013192215 0.079763 -0.11080139 0.055825345 0.014825945 0.040891584
-0.06672762 -0.08374916 0.0026591385 -0.09234312 0.092044115 0.0701374 -0.023651443 -0.022651274
-0.06660061 -0.11058451 -0.079675496 0.056970637 -0.06444672 -0.033785153 0.025286477 0.067311965
-0.063014396 0.028769607 -0.057338156 0.02458208 0.05868653 0.06747211 0.004617397 0.11542004
0.0801697 0.043743275 -0.10008178 0.07636671 0.09410947 -0.04638548 0.0139157185 0.021911604
-0.007150274 0.070763856 0.07005218 -0.067047514 0.03233206 -0.09664396 0.031739812 -0.066198386
0.004514524 0.11377532 0.021591948 -0.099480696 0.036074776 0.004784819 -0.08142115 -0.11518422
0.07452245 0.102041885 0.0020826224 0.07660877 0.088242404 -0.06932509 -0.050657008 0.026477698
-0.11506288 -0.09638403 -0.11448155 0.018748049 -0.044165507 0.088899866 0.101864345 -0.03895236
0.113243036 -0.07009973 0.010352191 0.07049989 -0.023819005 0.093227245 0.062503174 0.091151625
00000000: 5bc9 e13d 0571 c83d e30f 5abd f1e3 65bd
00000010: fe0b ecbc b5d5 7a3d fb46 c93d ecf3 ddbd
00000020: 2a58 17bc 4d11 6f3d bc85 1dbc b371 cbbd
00000030: 41df b13d 9d3e 0f3d 80e8 433c a720 433d
00000040: ab7f 093d 443d 1cbd ca74 d63d 309d f8bc
00000050: b350 193c a2c2 303d 6529 17bd d0b6 b53d
00000060: f016 d4bd 267e 40bc 8b59 19bc a03f 7cbd
00000070: d9a2 02bc fda5 4fbc 9a48 cbbd 14b1 b9bd
00000080: 3c3b 87bd 7cec 933d 960e ed3d 2e01 acbd
00000090: 2859 d6bd d198 78bc e0ab a2bd 859a 46bd
000000a0: e71b b03c 2f39 eabd 0dcf d4bc b1cd 3e3d
000000b0: 1850 473c 2db9 d6bd 3e69 f0bc e7bd bdbd
000000c0: bbfa f1bc 5110 003c 1ecf d83d 8c6a a73d
000000d0: 7aa2 87bc 3cfb a53d cd01 cfbd 6c04 b0bb
000000e0: e8d2 9dbd 1eff cbbc 0d24 8f3d 2d53 69bb
000000f0: 9b58 f63a 2885 adbd 5f13 b93d 64e9 a53d
00000100: 829b 373d a1d2 453b e71d 80bd 730e 6a3d
00000110: 2bba e6bd 0d59 d4bd 3397 e0bd 5fed fcbc
00000120: 189b 833d b091 123d cd6b 35bd 0be7 a73c
00000130: 9259 b93d 9f0c 56bc 3aec e23b dc80 8dbd
00000140: 61b4 ecbc d052 e3bd e087 d5bd e57b a6bd
00000150: 98fa 283d 388a 433d a137 85bd 99e6 373b
00000160: 1003 7abd 5970 87bd 32ca 6b3d 4d0b b63d
00000170: b669 8b3d 64c8 4a3d 496f b7bd 5215 b4bd
00000180: 5978 2bbd 496d ef3c 881b 91bd 0f85 973d
00000190: 1910 983d 2f27 8dbd 88eb 49bd a1ca c73d
000001a0: 436c 413d e316 983c 1271 36bd 1ca2 d1bd
000001b0: 41ad 6dbd 1d79 4fbd 9a5f 883d 76d3 733d
000001c0: e401 c5bd 6d0d b0bd 95d5 51bc 77bf b4bd
000001d0: ad42 423d d2c4 d2bd 14ba 333d a4bd 16bd
000001e0: ec06 b23d 72bc af3d ff9b e23d 9747 c0bc
000001f0: e53a b93d df46 c03d 9d8f 673d ef2d 923c
00000200: 118b 533d c681 8f3d 0b52 50bb 20e4 2d3c
00000210: 8fae dcbd d23a 7d3d 85ae 17bd 8fa9 e7bd
00000220: cbce 9b3d 2ea3 e1bd c5c8 d8bd 1882 ce3d
00000230: dfa5 b83d 443b adbd 4fcd 85bd d9ad e23d
00000240: 11d8 3c3d 23d7 5f3c 7be6 c73d dcb9 12bd
00000250: 8c1a 943d 7059 92bd 8304 84bc a452 f73c
00000260: 9421 3dbd 7124 84bd 4d58 e63d 7454 7dbd
00000270: 0902 c2bd ae78 743d 1685 ff3b c1ba d0bd
00000280: 5f1e d93d 13a5 a83d 7195 ea3d f3fc eebd
00000290: 6b1f ef3d 0747 df3d eaf0 f6bc 6dfc a93d
000002a0: e33e c4bd 644b 863d 7434 6c3b 1f6a 593d
000002b0: 447e 0f3d d1ea cb3d f12a 863c 20e7 443b
000002c0: 1875 bbbd a2c9 973d 2924 583c c95a a33d
000002d0: d7eb e2bd 1ea9 643d 85e8 723c ef7d 273d
000002e0: 7ea8 88bd ae84 abbd f144 2e3b 641e bdbd
000002f0: a081 bc3d 32a4 8f3d acc0 c1bc 2a8f b9bc
00000300: e765 88bd 227a e2bd e82c a3bd 0b5a 693d
00000310: a4fc 83bd 4d62 0abd 9625 cf3c dbda 893d
00000320: b10d 81bd 3dae eb3c 6adb 6abd 5c60 c93c
00000330: 4961 703d d12e 8a3d 894d 973b 5861 ec3d
00000340: 0330 a43d 262c 333d adf7 ccbd 2666 9c3d
00000350: 77bc c03d b3fe 3dbd c1fe 633c f77f b33c
00000360: d84c eabb a4ec 903d 8477 8f3d 3550 89bd
00000370: 9f6e 043d 45ed c5bd 9b01 023d 0593 87bd
00000380: 92ee 933b 0903 e93d 99e1 b03c 89bc cbbd
00000390: 25c3 133d f9c9 9c3b 22c0 a6bd b4e5 ebbd
000003a0: 3a9f 983d 56fb d03d 9b7c 083b 0fe5 9c3d
000003b0: 6fb8 b43d 50fa 8dbd b97d 4fbd c2e7 d83c
000003c0: 16a6 ebbd fe64 c5bd 4e75 eabd 8295 993c
000003d0: e4e6 34bd 2211 b63d 419e d03d 838c 1fbd
000003e0: f7eb e73d 7290 8fbd 3c9c 293c 3f62 903d
000003f0: 1320 c3bc eded be3d aa01 803d b4ad ba3d

pipe2.0.bias f4 [16]
-0.038054742 -0.010544474 -0.072719514 0.023995385 0.09085604 -0.0037612251 0.07002464 -0.02070302
-0.019421227 -0.10385964 0.02278748 0.10768155 -0.008776997 -0.02818892 -0.054906767 0.07501683
00000000: 4adf 1bbd bbc2 2cbc f8ed 94bd f891 c43c
00000010: bb12 ba3d e37e 76bb 1469 8f3d 6199 a9bc
00000020: 4419 9fbc 5db4 d4bd cfac ba3c 2588 dc3d
00000030: 65cd 0fbc 73ec e6bc ebe5 60bd 6ca2 993d

pipe3.0.weight f4 [32, 16, 2, 2]
0.057127282 0.055836037 0.1102162 0.03409651 -0.08092009 0.073378086 -0.10487397 0.051444493
-0.073208645 -0.08331279 -0.0025007075 -0.093161546 0.05860748 0.11706201 -0.07521482 0.060388826
0.020370103 -0.043076888 0.0945269 -0.10191362 -0.0670857 -0.103585064 -0.0687171 -0.11286085
0.07262531 -0.014410273 0.00273877 0.021768766 0.11867263 0.0536365 -0.08844704 -0.078254566
-0.117329456 0.036027376 -0.061705574 -0.055522047 -0.038533214 -0.06720189 0.0840724 0.12049996
-0.026228074 0.02080511 0.047782455 -0.04381588 -0.1017545 -0.004897667 -0.11946887 -0.038041063
-0.111171514 -0.020520534 0.05734687 0.052301068 0.049191266 0.046097465 -0.06121657 0.10606385
-4.9003545e-05 -0.08824691 -0.016927605 0.008908641 -0.12476415 0.040484 -0.09644118 -0.02666765
0.08581683 0.092674464 0.0714566 0.0709681 -0.110559046 -0.08980959 -0.0887427 -0.10443241
0.014037939 0.06896331 -0.085456096 0.008401412 -0.037914585 0.12102351 -0.07885715 -0.0017893034
-0.06777974 -0.06786551 0.02072269 -0.068862684 -0.046435725 0.067715645 0.014782725 -0.064062096
-0.032359924 0.080426484 -0.09774834 -0.109372 0.09307593 -0.00017581953 -0.097410716 0.03720315
0.06795901 -0.008715814 0.018913584 -0.10966761 0.095142 0.0745933 0.028170355 0.08790668
0.020847162 0.06062726 0.05071125 0.027205076 0.08376854 -0.117587715 -0.08818796 -0.07026991
0.058527943 -0.118448354 0.052962195 -0.04625522 -0.068418115 0.008950103 -0.022398494 -0.063884534
0.08971398 -0.08113332 0.011404971 0.04157099 -0.07948863 -0.09810535 -0.062211096 0.077934414
0.021182263 0.004009182 0.032045018 -0.11547191 0.048881784 0.037806686 0.119558595 0.03135992
0.030610584 -0.023777314 0.08379998 0.044564012 0.00068902434 -0.08163735 -0.09247435 0.046529703
0.00743293 0.02205209 -0.08306157 0.026758479 -0.006025964 0.011030564 0.062434606 -0.088596314
-0.048288792 -0.038530704 0.091237925 -0.019992527 0.0758361 0.12430049 -0.028596062 -0.09116974
-0.013016669 0.023130361 -0.07375945 -0.03804066 0.052056406 0.066666976 0.05553436 -0.06819887
0.07781946 -0.050073188 -0.11078103 0.119614884 0.04130691 -0.036220554 0.008767726 0.0829709
-0.04933834 0.09931001 0.056130167 -0.085595414 -0.08019065 0.08505857 0.10884824 0.09034441
-0.11528642 -0.04167032 -0.026655013 0.09605834 -0.11700877 -0.0696998 0.08728877 -0.100224435
0.013923709 -0.118687935 -0.059166647 -0.06146053 -0.025693018 0.016956126 0.10651834 -0.10399317
0.03400825 -0.101662025 -0.02628733 0.02852734 0.033764377 0.01871566 0.051234145 -0.09906402
-0.08404458 -0.049668226 -0.010532787 0.027716156 0.06489977 0.013733753 0.0386469 -0.019659733
-0.097401105 0.08633444 0.001806536 -0.088565946 0.022691542 -0.08727047 -0.036706764 0.0044503277
-0.043925684 0.0057051955 -0.07201693 -0.050057013 -0.058361676 0.10143877 -0.11008637 -0.066506684
-0.019764194 -0.06280531 -0.058294926 -0.032064237 -0.026975263 0.066084184 0.085763566 -0.044235546
-0.022062592 0.002513324 -0.020021833 0.113837086 0.0811104 0.1184695 -0.025827957 0.1105353
-0.08422874 0.08597029 -0.09349559 0.08244912 -0.118514925 -0.10236256 0.041417226 0.090374544
00000000: 4cfe 693d 54b4 643d 08b9 e13d c8a8 0b3d
00000010: 6fb9 a5bd 4047 963d 2ac8 d6bd 76b7 523d
00000020: 6aee 95bd e59f aabd e9e2 23bb 7bcb bebd
00000030: 660e 703d 35be ef3d 3a0a 9abd 465a 773d
00000040: 34df a63c 6471 30bd 5297 c13d 17b8 d0bd
00000050: 3a64 89bd 6824 d4bd 8dbb 8cbd 9723 e7bd
00000060: 94bc 943d 1119 6cbc f07c 333b 6954 b23c
00000070: a30a f33d f2b1 5b3d b923 b5bd ee43 a0bd
00000080: 6d4a f0bd 7191 133d fcbe 7cbd 166b 63bd
00000090: 01d5 1dbd 25a1 89bd 272e ac3d afc8 f63d
000000a0: 42dc d6bc 7a6f aa3c 89b7 433d 4878 33bd
000000b0: aa64 d0bd 9c7c a0bb 18ac f4bd f2d0 1bbd
000000c0: e4ad e3bd ae1a a8bc 8de4 6a3d a539 563d
000000d0: c87c 493d b2d0 3c3d 3abe 7abd 0138 d93d
000000e0: 2889 4db8 ccba b4bd c3ab 8abc 8cf5 113c
000000f0: 5984 ffbd 8dd2 253d f482 c5bd 1e76 dabc
00000100: bcc0 af3d 1ccc bd3d d757 923d b957 913d
00000110: c86c e2bd 17ee b7bd bcbe b5bd a9e0 d5bd
00000120: 62ff 653c a33c 8d3d 9b03 afbd 13a6 093c
00000130: 534c 1bbd 2ddb f73d dc7f a1bd 0f87 eaba
00000140: 1bd0 8abd 13fd 8abd a1c2 a93c e107 8dbd
00000150: 6333 3ebd 80ae 8a3d 3e33 723c fd32 83bd
00000160: d78b 04bd a4b6 a43d 4830 c8bd 6dfe dfbd
00000170: 989e be3d 325c 38b9 457f c7bd 5562 183d
00000180: 182e 8b3d c6cc 0ebc a9f0 9a3c 6999 e0bd
00000190: cfd9 c23d 5fc4 983d 84c5 e63c 6b08 b43d
000001a0: abc7 aa3c 4a54 783d 9ab6 4f3d 2edd de3c
000001b0: d78e ab3d d4d1 f0bd e49b b4bd ace9 8fbd
000001c0: ffba 6f3d 0d95 f2bd e3ee 583d 1d76 3dbd
000001d0: cc1e 8cbd 74a3 123c 0c7d b7bc e5d5 82bd
000001e0: f7bb b73d 3a29 a6bd eadb 3a3c 5846 2a3d
000001f0: efca a2bd 75eb c8bd 10d1 7ebd 149c 9f3d
00000200: 6d86 ad3c 755f 833b a341 033d 897c ecbd
00000210: 4438 483d 2fdb 1a3d 23db f43d 4273 003d
00000220: 0cc3 fa3c a4c8 c2bc 539f ab3d c188 363d
00000230: a49f 343a 7c31 a7bd 3163 bdbd ee95 3e3d
00000240: f08f f33b 96a6 b43c 2f1c aabd 9934 db3c
00000250: 7375 c5bb 8ab9 343c 6ebb 7f3d fc71 b5bd
00000260: 78ca 45bd 5fd2 1dbd f3da ba3d 5ec7 a3bc
00000270: f54f 9b3d 4191 fe3d 4a42 eabc 33b7 babd
00000280: de43 55bc e27b bd3c 320f 97bd 86d0 1bbd
00000290: 1939 553d b288 883d ff77 633d d9ab 8bbd
000002a0: cf5f 9f3d 8b19 4dbd 2ae1 e2bd a6f8 f43d
000002b0: 6f31 293d 015c 14bd 82a6 0f3c a6ec a93d
000002c0: 0017 4abd 0c63 cb3d bfe8 653d a64c afbd
000002d0: ff3a a4bd 3033 ae3d d3eb de3d 7d06 b93d
000002e0: 491b ecbd 7fae 2abd 9d5b dabc 3cba c43d
000002f0: 4ba2 efbd c5be 8ebd 74c4 b23d 7842 cdbd
00000300: 4520 643c a912 f3bd ba58 72bd 09be 7bbd
00000310: 2a7a d2bc 93e7 8a3c 4a26 da3d 5ffa d4bd
00000320: 3c4c 0b3d 2e34 d0bd 8758 d7bc 2bb2 e93c
00000330: 844c 0a3d 9551 993c e5da 513d 14e2 cabd
00000340: 911f acbd e970 4bbd b691 2cbc fe0c e33c
00000350: 2cea 843d 8903 613c 364c 1e3d 730d a1bc
00000360: 3b7a c7bd 1cd0 b03d 4ac9 ec3a 1062 b5bd
00000370: 9de3 b93c dcba b2bd d559 16bd 0ed4 913b
00000380: 6beb 33bd a6f2 ba3b 9d7d 93bd 9508 4dbd
00000390: a70c 6fbd 21bf cf3d f674 e1bd a834 88bd
000003a0: 85e8 a1bc 12a0 80bd a9c6 6ebd ca55 03bd
000003b0: 3afb dcbc 2557 873d cfa4 af3d 5530 35bd
000003c0: 9cbc b4bc 94b6 243b d404 a4bc 6b23 e93d
000003d0: 361d a63d 23a0 f23d 2795 d3bc 5560 e23d
000003e0: 1e80 acbd 3111 b03d 9e7a bfbd 16db a83d
000003f0: f4b7 f2bd 76a3 d1bd 1ca5 293d 4a16 b93d

pipe3.0.bias f4 [32]
0.019154212 0.11991151 0.098670535 0.10113223 0.05149998 0.041664433 0.019150529 -0.019230217
-0.10676156 0.05968737 0.057837736 0.10743275 -0.0066203265 0.07476413 -0.071000576 0.019943487
0.052456617 0.07578046 -0.05099149 -0.017963028 0.03054331 0.107021175 -0.025594672 -0.010704671
0.103417076 -0.066092804 0.06073761 -0.058574855 -0.08253448 0.07991129 0.029635364 -0.11825974
00000000: 4be9 9c3c 2a94 f53d c713 ca3d 6a1e cf3d
00000010: a5f1 523d 53a8 2a3d 92e1 9c3c b088 9dbc
00000020: cea5 dabd be7a 743d 43e7 6c3d b405 dc3d
00000030: 53ef d8bb f01d 993d c068 91bd 8660 a33c
00000040: c0dc 563d c932 9b3d 74dc 50bd 3327 93bc
00000050: f735 fa3c eb2d db3d ebab d1bc a562 2fbc
00000060: 55cc d33d aa5b 87bd 00c8 783d 30ec 6fbd
00000070: d607 a9bd 88a8 a33d ddc5 f23c 2a32 f2bd

pipes.0.0.weight f4 [8, 3, 5, 5]
-0.054763407 -0.09413786 -0.10505986 0.08804767 0.015433079 0.108806744 -0.07013345 0.102898166
-0.05249937 -0.057003282 -0.011442103 -0.09934285 -0.04641593 -0.003407175 0.006983187 0.08148747
-0.038863778 0.01337385 0.037300296 -0.07357729 -0.042580526 -0.017273486 0.049689375 0.025506934
-0.11463877 0.076332174 -0.10938783 0.0033406422 0.10469618 -0.030189078 0.0149874985 -0.090905435
-0.04661456 0.017454298 -0.050912164 0.11004379 -0.010447691 -0.104052514 0.015033401 0.080756515
-0.040060174 -0.024758285 0.03807925 0.10106815 0.0700697 0.032931797 0.108702734 0.03974526
0.10238323 -0.062667735 -0.09346169 -0.04394327 0.09747849 -0.015129725 -0.04891393 -0.09238369
0.014907353 -0.08807512 0.0795677 0.053147282 0.09010535 0.05564513 0.0912574 -0.023702847
0.07230869 -0.021244606 -0.07102001 0.00089695473 -0.061493088 -0.039510652 -0.072066285 0.10651349
-0.021202253 -0.0004782156 0.08657042 -0.10855493 0.09809693 -0.0576788 -0.042245973 -0.00061723817
0.05627938 0.016514203 -0.050570525 0.081848755 0.057227023 -0.07441764 -0.011654615 0.06762614
-0.039728686 -0.06663826 -0.10647931 0.07782207 -0.018967727 -0.058567986 -0.10107499 0.08226058
-0.100511804 -0.008647463 -0.01773036 0.10455259 -0.0029552178 0.020805007 -0.10946042 -0.078197636
0.09538213 0.08832765 0.05079266 -0.016712874 0.023214756 -0.06019116 -0.07111055 -0.014762298
0.0997778 0.030849418 -0.038790528 0.016313056 -0.10645461 -0.019444698 -0.059005234 0.0642788
0.10200314 0.07007796 0.037441306 -0.06274714 0.018803634 0.1008874 -0.010957091 0.068923034
0.006162732 0.035191003 0.068906225 -0.0529962 -0.07930207 -0.035801224 -0.11088281 0.014746793
-0.005899191 -0.02431356 0.111149445 -0.04700794 -0.043850437 0.099727824 0.0071781036 -0.0205117
0.0135310395 -0.06400403 0.06231904 -0.078964256 0.0749821 0.035899233 0.11097043 -0.030303635
-0.08055667 0.10044788 -0.01076844 0.026423734 0.04776219 0.06125026 0.017368177 0.01876807
-0.097747765 0.09209802 -0.029553287 0.09814339 -0.040667273 -0.010481708 -0.02654125 -0.08083728
-0.08815905 -0.09503835 0.0013194508 0.058228426 0.06491564 0.007974723 -0.102289855 -0.09285657
-0.0023396546 -0.055066895 0.03867609 0.05824817 0.09670408 -0.08736797 0.042807687 0.07976023
-0.0118555715 -0.09324617 0.09397837 -0.0283427 0.07749597 0.059532024 -0.040987357 -0.09040747
-0.037375562 -0.01724348 0.09378907 0.10511022 0.06574328 0.025957843 0.058521867 -0.05079614
0.039886132 -0.033165623 -0.07327769 0.027393224 0.051741235 -0.062279727 -0.056904595 0.055364907
-0.07228615 0.0064208596 -0.09778074 -0.06882034 0.029580643 -0.027725704 0.02696786 0.09181732
-0.101781845 -0.08059363 0.08829957 0.006735325 -0.109211534 0.0287382 -0.07544971 -0.089079306
-0.09735012 0.09621495 -0.00847791 0.07668954 0.044901095 -0.055287257 0.099653006 -0.07127745
-0.099085614 -0.028327024 -0.07592414 -0.025223358 0.03681691 0.09208365 0.040126037 -0.09400858
-0.004660226 0.07356968 -0.097044066 0.0115282815 0.062088095 -0.0550982 -0.07284955 -0.02067963
0.10038442 -0.018739201 -0.04412018 0.11481011 -0.1023516 -0.019959534 -0.075898424 0.08367541
00000000: 984f 60bd 5acb c0bd a029 d7bd 5652 b43d
00000010: 06db 7c3c 12d6 de3d 20a2 8fbd 46bc d23d
00000020: 9409 57bd 467c 69bd a977 3bbc 4474 cbbd
00000030: a11e 3ebd e94a 5fbb 38d3 e43b e7e2 a63d
00000040: a02f 1fbd fe1d 5b3c 32c8 183d b1af 96bd
00000050: eb68 2ebd 2081 8dbc 1687 4b3d ebf3 d03c
00000060: bbc7 eabd 0b54 9c3d ba06 e0bd adee 5a3b
00000070: f36a d63d 164f f7bc 208e 753c a12c babd
00000080: e9ee 3ebd 51fc 8e3c 4689 50bd a35e e13d
00000090: cb2c 2bbc 7c19 d5bd a74e 763c ac63 a53d
000000a0: 2316 24bd e3d1 cabc fdf8 1b3d d1fc ce3d
000000b0: b480 8f3d 7ee3 063d 8a9f de3d edcb 223d
000000c0: 4dae d13d f157 80bd d868 bfbd dcfd 33bd
000000d0: cda2 c73d abe2 77bc f959 48bd a933 bdbd
000000e0: f83d 743c ba60 b4bd 64f4 a23d f7b0 593d
000000f0: 2789 b83d 26ec 633d 29e5 ba3d 792c c2bc
00000100: 9416 943d 2b09 aebc f072 91bd 9d21 6b3a
00000110: 2de0 7bbd ecd5 21bd 7d97 93bd bf23 da3d
00000120: 59b0 adbc 03b9 fab9 d54b b13d 0c52 debd
00000130: 0be7 c83d 9b40 6cbd 1d0a 2dbd 27ce 21ba
00000140: 3585 663d cb48 873c 0a23 4fbd 52a0 a73d
00000150: e266 6a3d 4768 98bd 00f3 3ebc 937f 8a3d
00000160: 8cba 22bd a479 88bd d311 dabd 2d61 9f3d
00000170: 3562 9bbc fce4 6fbd 6800 cfbd 3c78 a83d
00000180: 22d9 cdbd 17ae 0dbc 433f 91bc ab1f d63d
00000190: 54ac 41bb 436f aa3c c92c e0bd 1526 a0bd
000001a0: b557 c33d 21e5 b43d f70b 503d 70e9 88bc
000001b0: df2c be3c 018b 76bd 68a2 91bd 91dd 71bc
000001c0: 4e58 cc3d ebb7 fc3c d1e2 1ebd f5a2 853c
000001d0: e004 dabd 7d4a 9fbc 79af 71bd 9aa4 833d
000001e0: 06e7 d03d 0985 8f3d 0e5c 193d 9381 80bd
000001f0: 140a 9a3c 0e9e ce3d 5f85 33bc 8527 8d3d
00000200: bef0 c93b 7124 103d b51e 8d3d 8b12 59bd
00000210: 2069 a2bd 4ea4 12bd 8716 e3bd 889c 713c
00000220: 004e c1bb 3b2d c7bc 52a2 e33d 668b 40bd
00000230: 849c 33bd 1a3e cc3d 4c36 eb3b 2708 a8bc
00000240: 4bb1 5d3c 8b14 83bd 4042 7f3d 03b8 a1bd
00000250: 3790 993d 130b 133d 7744 e33d 543f f8bc
00000260: e5fa a4bd 9eb7 cd3d 1c6e 30bc 9676 d83c
00000270: 49a2 433d 8de1 7a3d b547 8e3c 7fbf 993c
00000280: fb2f c8bd e39d bc3d bc19 f2bc 67ff c83d
00000290: ba92 26bd 78bb 2bbc 096d d9bc 048e a5bd
000002a0: bb8c b4bd 77a3 c2bd 6cf1 ac3a ee80 6e3d
000002b0: 7ef2 843d 6aa8 023c 587d d1bd 962b bebd
000002c0: e454 19bb d38d 61bd d26a 1e3d a295 6e3d
000002d0: ca0c c63d faed b2bd 1d57 2f3d 5559 a33d
000002e0: df3d 42bc d9f7 bebd bb77 c03d f32e e8bc
000002f0: 35b6 9e3d dad7 733d 5ce2 27bd 8d27 b9bd
00000300: 1e17 19bd 3342 8dbc 7c14 c03d 0744 d73d
00000310: 6aa4 863d 8ba5 d43c a0b4 6f3d 9d0f 50bd
00000320: a45f 233d add8 07bd 9d12 96bd c167 e03c
00000330: 9eee 533d 0719 7fbd cb14 69bd 50c6 623d
00000340: c30a 94bd 1366 d23b 4541 c8bd aef1 8cbd
00000350: 1b53 f23c 0421 e3bc b4eb dc3c b80a bc3d
00000360: 0073 d0bd 460e a5bd 68d6 b43d 00b4 dc3b
00000370: 4caa dfbd 606c eb3c 6185 9abd 366f b6bd
00000380: 805f c7bd 580c c53d efe6 0abc 680f 9d3d
00000390: 36ea 373d e474 62bd e016 cc3d e9f9 91bd
000003a0: 66ed cabd 130e e8bc 1e7e 9bbd 37a1 cebc
000003b0: 54cd 163d 5a96 bc3d 335b 243d 9287 c0bd
000003c0: cfb4 98bb b3ab 963d 0abf c6bd 1ee1 3c3c
000003d0: 1650 7e3d a6ae 61bd 2532 95bd 5468 a9bc
000003e0: 5996 cd3d f482 99bc 5db7 34bd 9021 eb3d
000003f0: b79d d1bd 2d82 a3bc a270 9bbd 035e ab3d

pipes.0.0.bias f4 [8]
0.030747058 0.059947014 0.022155378 0.025119169 -0.015969288 -0.0061967704 -0.03639549 0.09549874
00000000: 41e1 fb3c 008b 753d 327f b53c b7c6 cd3c
00000010: 06d2 82bc 470e cbbb 7013 15bd d894 c33d

pipes.1.0.weight f4 [16, 8, 3, 3]
0.11024734 0.09787182 -0.053237807 -0.056125585 -0.028814312 0.061238963 0.098279916 -0.1083754
-0.009237329 0.05836611 -0.009614404 -0.09933796 0.086851604 0.034971822 0.011957288 0.04763856
0.03356902 -0.038144365 0.104714945 -0.03034839 0.009357619 0.043154366 -0.03690471 0.08872759
-0.103559375 -0.011748826 -0.009359728 -0.061584115 -0.007973396 -0.012673852 -0.09925957 -0.09066978
-0.06603095 0.0722284 0.11575048 -0.083986625 -0.10466224 -0.015173153 -0.07942939 -0.048487205
0.02149768 -0.11436688 -0.025977636 0.04658288 0.012165092 -0.10484538 -0.029347058 -0.092647366
-0.029538503 0.00781639 0.105863795 0.08174619 -0.016556967 0.0810456 -0.10107765 -0.005371621
-0.07706243 -0.024901923 0.06989298 -0.0035602555 0.0018794717 -0.08472663 0.09036898 0.08101156
0.04482604 0.003018536 -0.062557034 0.057142686 -0.112659775 -0.103685476 -0.10966339 -0.030874906
0.06426066 0.03578347 -0.04429226 0.020495912 0.09050287 -0.013064533 0.006925133 -0.069093436
-0.028894605 -0.110997796 -0.10426307 -0.081291 0.04125461 0.047739238 -0.06504751 0.002806103
-0.061038077 -0.066132255 0.057565875 0.08888874 0.06807272 0.049507514 -0.08956773 -0.08793129
-0.04186282 0.029226916 -0.07085329 0.07398426 0.074249454 -0.06892239 -0.049296886 0.09755445
0.047222387 0.0185656 -0.044541426 -0.10235998 -0.058026556 -0.050652612 0.066588596 0.059527837
-0.09619501 -0.08596311 -0.01280727 -0.088255815 0.04742687 -0.10291447 0.04387863 -0.03680195
0.086927265 0.08580865 0.1106491 -0.023471637 0.09044436 0.093885176 0.056533445 0.017844168
0.051646296 0.07007174 -0.0031787183 0.010613471 -0.10775482 0.061823674 -0.03703167 -0.113116376
0.07607802 -0.11017452 -0.10585169 0.10083407 0.090160124 -0.0845857 -0.065333 0.11068315
0.046104494 0.013662132 0.097607575 -0.03582178 0.07231626 -0.07145965 -0.016115433 0.030190773
-0.0461746 -0.06452263 0.11247311 -0.06184812 -0.094730444 0.0596854 0.0077978475 -0.101918705
0.10601496 0.082346104 0.11454285 -0.1166934 0.116759144 0.10902219 -0.030144174 0.083000995
-0.09582307 0.06557348 0.0036042007 0.05307972 0.035032526 0.09956897 0.016377898 0.0030044988
-0.09153193 0.07411505 0.013192215 0.079763 -0.11080139 0.055825345 0.014825945 0.040891584
-0.06672762 -0.08374916 0.0026591385 -0.09234312 0.092044115 0.0701374 -0.023651443 -0.022651274
-0.06660061 -0.11058451 -0.079675496 0.056970637 -0.06444672 -0.033785153 0.025286477 0.067311965
-0.063014396 0.028769607 -0.057338156 0.02458208 0.05868653 0.06747211 0.004617397 0.11542004
0.0801697 0.043743275 -0.10008178 0.07636671 0.09410947 -0.04638548 0.0139157185 0.021911604
-0.007150274 0.070763856 0.07005218 -0.067047514 0.03233206 -0.09664396 0.031739812 -0.066198386
0.004514524 0.11377532 0.021591948 -0.099480696 0.036074776 0.004784819 -0.08142115 -0.11518422
0.07452245 0.102041885 0.0020826224 0.07660877 0.088242404 -0.06932509 -0.050657008 0.026477698
-0.11506288 -0.09638403 -0.11448155 0.018748049 -0.044165507 0.088899866 0.101864345 -0.03895236
0.113243036 -0.07009973 0.010352191 0.07049989 -0.023819005 0.093227245 0.062503174 0.091151625
00000000: 5bc9 e13d 0571 c83d e30f 5abd f1e3 65bd
00000010: fe0b ecbc b5d5 7a3d fb46 c93d ecf3 ddbd
00000020: 2a58 17bc 4d11 6f3d bc85 1dbc b371 cbbd
00000030: 41df b13d 9d3e 0f3d 80e8 433c a720 433d
00000040: ab7f 093d 443d 1cbd ca74 d63d 309d f8bc
00000050: b350 193c a2c2 303d 6529 17bd d0b6 b53d
00000060: f016 d4bd 267e 40bc 8b59 19bc a03f 7cbd
00000070: d9a2 02bc fda5 4fbc 9a48 cbbd 14b1 b9bd
00000080: 3c3b 87bd 7cec 933d 960e ed3d 2e01 acbd
00000090: 2859 d6bd d198 78bc e0ab a2bd 859a 46bd
000000a0: e71b b03c 2f39 eabd 0dcf d4bc b1cd 3e3d
000000b0: 1850 473c 2db9 d6bd 3e69 f0bc e7bd bdbd
000000c0: bbfa f1bc 5110 003c 1ecf d83d 8c6a a73d
000000d0: 7aa2 87bc 3cfb a53d cd01 cfbd 6c04 b0bb
000000e0: e8d2 9dbd 1eff cbbc 0d24 8f3d 2d53 69bb
000000f0: 9b58 f63a 2885 adbd 5f13 b93d 64e9 a53d
00000100: 829b 373d a1d2 453b e71d 80bd 730e 6a3d
00000110: 2bba e6bd 0d59 d4bd 3397 e0bd 5fed fcbc
00000120: 189b 833d b091 123d cd6b 35bd 0be7 a73c
00000130: 9259 b93d 9f0c 56bc 3aec e23b dc80 8dbd
00000140: 61b4 ecbc d052 e3bd e087 d5bd e57b a6bd
00000150: 98fa 283d 388a 433d a137 85bd 99e6 373b
00000160: 1003 7abd 5970 87bd 32ca 6b3d 4d0b b63d
00000170: b669 8b3d 64c8 4a3d 496f b7bd 5215 b4bd
00000180: 5978 2bbd 496d ef3c 881b 91bd 0f85 973d
00000190: 1910 983d 2f27 8dbd 88eb 49bd a1ca c73d
000001a0: 436c 413d e316 983c 1271 36bd 1ca2 d1bd
000001b0: 41ad 6dbd 1d79 4fbd 9a5f 883d 76d3 733d
000001c0: e401 c5bd 6d0d b0bd 95d5 51bc 77bf b4bd
000001d0: ad42 423d d2c4 d2bd 14ba 333d a4bd 16bd
000001e0: ec06 b23d 72bc af3d ff9b e23d 9747 c0bc
000001f0: e53a b93d df46 c03d 9d8f 673d ef2d 923c
00000200: 118b 533d c681 8f3d 0b52 50bb 20e4 2d3c
00000210: 8fae dcbd d23a 7d3d 85ae 17bd 8fa9 e7bd
00000220: cbce 9b3d 2ea3 e1bd c5c8 d8bd 1882 ce3d
00000230: dfa5 b83d 443b adbd 4fcd 85bd d9ad e23d
00000240: 11d8 3c3d 23d7 5f3c 7be6 c73d dcb9 12bd
00000250: 8c1a 943d 7059 92bd 8304 84bc a452 f73c
00000260: 9421 3dbd 7124 84bd 4d58 e63d 7454 7dbd
00000270: 0902 c2bd ae78 743d 1685 ff3b c1ba d0bd
00000280: 5f1e d93d 13a5 a83d 7195 ea3d f3fc eebd
00000290: 6b1f ef3d 0747 df3d eaf0 f6bc 6dfc a93d
000002a0: e33e c4bd 644b 863d 7434 6c3b 1f6a 593d
000002b0: 447e 0f3d d1ea cb3d f12a 863c 20e7 443b
000002c0: 1875 bbbd a2c9 973d 2924 583c c95a a33d
000002d0: d7eb e2bd 1ea9 643d 85e8 723c ef7d 273d
000002e0: 7ea8 88bd ae84 abbd f144 2e3b 641e bdbd
000002f0: a081 bc3d 32a4 8f3d acc0 c1bc 2a8f b9bc
00000300: e765 88bd 227a e2bd e82c a3bd 0b5a 693d
00000310: a4fc 83bd 4d62 0abd 9625 cf3c dbda 893d
00000320: b10d 81bd 3dae eb3c 6adb 6abd 5c60 c93c
00000330: 4961 703d d12e 8a3d 894d 973b 5861 ec3d
00000340: 0330 a43d 262c 333d adf7 ccbd 2666 9c3d
00000350: 77bc c03d b3fe 3dbd c1fe 633c f77f b33c
00000360: d84c eabb a4ec 903d 8477 8f3d 3550 89bd
00000370: 9f6e 043d 45ed c5bd 9b01 023d 0593 87bd
00000380: 92ee 933b 0903 e93d 99e1 b03c 89bc cbbd
00000390: 25c3 133d f9c9 9c3b 22c0 a6bd b4e5 ebbd
000003a0: 3a9f 983d 56fb d03d 9b7c 083b 0fe5 9c3d
000003b0: 6fb8 b43d 50fa 8dbd b97d 4fbd c2e7 d83c
000003c0: 16a6 ebbd fe64 c5bd 4e75 eabd 8295 993c
000003d0: e4e6 34bd 2211 b63d 419e d03d 838c 1fbd
000003e0: f7eb e73d 7290 8fbd 3c9c 293c 3f62 903d
000003f0: 1320 c3bc eded be3d aa01 803d b4ad ba3d

pipes.1.0.bias f4 [16]
-0.038054742 -0.010544474 -0.072719514 0.023995385 0.09085604 -0.0037612251 0.07002464 -0.02070302
-0.019421227 -0.10385964 0.02278748 0.10768155 -0.008776997 -0.02818892 -0.054906767 0.07501683
00000000: 4adf 1bbd bbc2 2cbc f8ed 94bd f891 c43c
00000010: bb12 ba3d e37e 76bb 1469 8f3d 6199 a9bc
00000020: 4419 9fbc 5db4 d4bd cfac ba3c 2588 dc3d
00000030: 65cd 0fbc 73ec e6bc ebe5 60bd 6ca2 993d

pipes.2.0.weight f4 [32, 16, 2, 2]
0.057127282 0.055836037 0.1102162 0.03409651 -0.08092009 0.073378086 -0.10487397 0.051444493
-0.073208645 -0.08331279 -0.0025007075 -0.093161546 0.05860748 0.11706201 -0.07521482 0.060388826
0.020370103 -0.043076888 0.0945269 -0.10191362 -0.0670857 -0.103585064 -0.0687171 -0.11286085
0.07262531 -0.014410273 0.00273877 0.021768766 0.11867263 0.0536365 -0.08844704 -0.078254566
-0.117329456 0.036027376 -0.061705574 -0.055522047 -0.038533214 -0.06720189 0.0840724 0.12049996
-0.026228074 0.02080511 0.047782455 -0.04381588 -0.1017545 -0.004897667 -0.11946887 -0.038041063
-0.111171514 -0.020520534 0.05734687 0.052301068 0.049191266 0.046097465 -0.06121657 0.10606385
-4.9003545e-05 -0.08824691 -0.016927605 0.008908641 -0.12476415 0.040484 -0.09644118 -0.02666765
0.08581683 0.092674464 0.0714566 0.0709681 -0.110559046 -0.08980959 -0.0887427 -0.10443241
0.014037939 0.06896331 -0.085456096 0.008401412 -0.037914585 0.12102351 -0.07885715 -0.0017893034
-0.06777974 -0.06786551 0.02072269 -0.068862684 -0.046435725 0.067715645 0.014782725 -0.064062096
-0.032359924 0.080426484 -0.09774834 -0.109372 0.09307593 -0.00017581953 -0.097410716 0.03720315
0.06795901 -0.008715814 0.018913584 -0.10966761 0.095142 0.0745933 0.028170355 0.08790668
0.020847162 0.06062726 0.05071125 0.027205076 0.08376854 -0.117587715 -0.08818796 -0.07026991
0.058527943 -0.118448354 0.052962195 -0.04625522 -0.068418115 0.008950103 -0.022398494 -0.063884534
0.08971398 -0.08113332 0.011404971 0.04157099 -0.07948863 -0.09810535 -0.062211096 0.077934414
0.021182263 0.004009182 0.032045018 -0.11547191 0.048881784 0.037806686 0.119558595 0.03135992
0.030610584 -0.023777314 0.08379998 0.044564012 0.00068902434 -0.08163735 -0.09247435 0.046529703
0.00743293 0.02205209 -0.08306157 0.026758479 -0.006025964 0.011030564 0.062434606 -0.088596314
-0.048288792 -0.038530704 0.091237925 -0.019992527 0.0758361 0.12430049 -0.028596062 -0.09116974
-0.013016669 0.023130361 -0.07375945 -0.03804066 0.052056406 0.066666976 0.05553436 -0.06819887
0.07781946 -0.050073188 -0.11078103 0.119614884 0.04130691 -0.036220554 0.008767726 0.0829709
-0.04933834 0.09931001 0.056130167 -0.085595414 -0.08019065 0.08505857 0.10884824 0.09034441
-0.11528642 -0.04167032 -0.026655013 0.09605834 -0.11700877 -0.0696998 0.08728877 -0.100224435
0.013923709 -0.118687935 -0.059166647 -0.06146053 -0.025693018 0.016956126 0.10651834 -0.10399317
0.03400825 -0.101662025 -0.02628733 0.02852734 0.033764377 0.01871566 0.051234145 -0.09906402
-0.08404458 -0.049668226 -0.010532787 0.027716156 0.06489977 0.013733753 0.0386469 -0.019659733
-0.097401105 0.08633444 0.001806536 -0.088565946 0.022691542 -0.08727047 -0.036706764 0.0044503277
-0.043925684 0.0057051955 -0.07201693 -0.050057013 -0.058361676 0.10143877 -0.11008637 -0.066506684
-0.019764194 -0.06280531 -0.058294926 -0.032064237 -0.026975263 0.066084184 0.085763566 -0.044235546
-0.022062592 0.002513324 -0.020021833 0.113837086 0.0811104 0.1184695 -0.025827957 0.1105353
-0.08422874 0.08597029 -0.09349559 0.08244912 -0.118514925 -0.10236256 0.041417226 0.090374544
00000000: 4cfe 693d 54b4 643d 08b9 e13d c8a8 0b3d
00000010: 6fb9 a5bd 4047 963d 2ac8 d6bd 76b7 523d
00000020: 6aee 95bd e59f aabd e9e2 23bb 7bcb bebd
00000030: 660e 703d 35be ef3d 3a0a 9abd 465a 773d
00000040: 34df a63c 6471 30bd 5297 c13d 17b8 d0bd
00000050: 3a64 89bd 6824 d4bd 8dbb 8cbd 9723 e7bd
00000060: 94bc 943d 1119 6cbc f07c 333b 6954 b23c
00000070: a30a f33d f2b1 5b3d b923 b5bd ee43 a0bd
00000080: 6d4a f0bd 7191 133d fcbe 7cbd 166b 63bd
00000090: 01d5 1dbd 25a1 89bd 272e ac3d afc8 f63d
000000a0: 42dc d6bc 7a6f aa3c 89b7 433d 4878 33bd
000000b0: aa64 d0bd 9c7c a0bb 18ac f4bd f2d0 1bbd
000000c0: e4ad e3bd ae1a a8bc 8de4 6a3d a539 563d
000000d0: c87c 493d b2d0 3c3d 3abe 7abd 0138 d93d
000000e0: 2889 4db8 ccba b4bd c3ab 8abc 8cf5 113c
000000f0: 5984 ffbd 8dd2 253d f482 c5bd 1e76 dabc
00000100: bcc0 af3d 1ccc bd3d d757 923d b957 913d
00000110: c86c e2bd 17ee b7bd bcbe b5bd a9e0 d5bd
00000120: 62ff 653c a33c 8d3d 9b03 afbd 13a6 093c
00000130: 534c 1bbd 2ddb f73d dc7f a1bd 0f87 eaba
00000140: 1bd0 8abd 13fd 8abd a1c2 a93c e107 8dbd
00000150: 6333 3ebd 80ae 8a3d 3e33 723c fd32 83bd
00000160: d78b 04bd a4b6 a43d 4830 c8bd 6dfe dfbd
00000170: 989e be3d 325c 38b9 457f c7bd 5562 183d
00000180: 182e 8b3d c6cc 0ebc a9f0 9a3c 6999 e0bd
00000190: cfd9 c23d 5fc4 983d 84c5 e63c 6b08 b43d
000001a0: abc7 aa3c 4a54 783d 9ab6 4f3d 2edd de3c
000001b0: d78e ab3d d4d1 f0bd e49b b4bd ace9 8fbd
000001c0: ffba 6f3d 0d95 f2bd e3ee 583d 1d76 3dbd
000001d0: cc1e 8cbd 74a3 123c 0c7d b7bc e5d5 82bd
000001e0: f7bb b73d 3a29 a6bd eadb 3a3c 5846 2a3d
000001f0: efca a2bd 75eb c8bd 10d1 7ebd 149c 9f3d
00000200: 6d86 ad3c 755f 833b a341 033d 897c ecbd
00000210: 4438 483d 2fdb 1a3d 23db f43d 4273 003d
00000220: 0cc3 fa3c a4c8 c2bc 539f ab3d c188 363d
00000230: a49f 343a 7c31 a7bd 3163 bdbd ee95 3e3d
00000240: f08f f33b 96a6 b43c 2f1c aabd 9934 db3c
00000250: 7375 c5bb 8ab9 343c 6ebb 7f3d fc71 b5bd
00000260: 78ca 45bd 5fd2 1dbd f3da ba3d 5ec7 a3bc
00000270: f54f 9b3d 4191 fe3d 4a42 eabc 33b7 babd
00000280: de43 55bc e27b bd3c 320f 97bd 86d0 1bbd
00000290: 1939 553d b288 883d ff77 633d d9ab 8bbd
000002a0: cf5f 9f3d 8b19 4dbd 2ae1 e2bd a6f8 f43d
000002b0: 6f31 293d 015c 14bd 82a6 0f3c a6ec a93d
000002c0: 0017 4abd 0c63 cb3d bfe8 653d a64c afbd
000002d0: ff3a a4bd 3033 ae3d d3eb de3d 7d06 b93d
000002e0: 491b ecbd 7fae 2abd 9d5b dabc 3cba c43d
000002f0: 4ba2 efbd c5be 8ebd 74c4 b23d 7842 cdbd
00000300: 4520 643c a912 f3bd ba58 72bd 09be 7bbd
00000310: 2a7a d2bc 93e7 8a3c 4a26 da3d 5ffa d4bd
00000320: 3c4c 0b3d 2e34 d0bd 8758 d7bc 2bb2 e93c
00000330: 844c 0a3d 9551 993c e5da 513d 14e2 cabd
00000340: 911f acbd e970 4bbd b691 2cbc fe0c e33c
00000350: 2cea 843d 8903 613c 364c 1e3d 730d a1bc
00000360: 3b7a c7bd 1cd0 b03d 4ac9 ec3a 1062 b5bd
00000370: 9de3 b93c dcba b2bd d559 16bd 0ed4 913b
00000380: 6beb 33bd a6f2 ba3b 9d7d 93bd 9508 4dbd
00000390: a70c 6fbd 21bf cf3d f674 e1bd a834 88bd
000003a0: 85e8 a1bc 12a0 80bd a9c6 6ebd ca55 03bd
000003b0: 3afb dcbc 2557 873d cfa4 af3d 5530 35bd
000003c0: 9cbc b4bc 94b6 243b d404 a4bc 6b23 e93d
000003d0: 361d a63d 23a0 f23d 2795 d3bc 5560 e23d
000003e0: 1e80 acbd 3111 b03d 9e7a bfbd 16db a83d
000003f0: f4b7 f2bd 76a3 d1bd 1ca5 293d 4a16 b93d

pipes.2.0.bias f4 [32]
0.019154212 0.11991151 0.098670535 0.10113223 0.05149998 0.041664433 0.019150529 -0.019230217
-0.10676156 0.05968737 0.057837736 0.10743275 -0.0066203265 0.07476413 -0.071000576 0.019943487
0.052456617 0.07578046 -0.05099149 -0.017963028 0.03054331 0.107021175 -0.025594672 -0.010704671
0.103417076 -0.066092804 0.06073761 -0.058574855 -0.08253448 0.07991129 0.029635364 -0.11825974
00000000: 4be9 9c3c 2a94 f53d c713 ca3d 6a1e cf3d
00000010: a5f1 523d 53a8 2a3d 92e1 9c3c b088 9dbc
00000020: cea5 dabd be7a 743d 43e7 6c3d b405 dc3d
00000030: 53ef d8bb f01d 993d c068 91bd 8660 a33c
00000040: c0dc 563d c932 9b3d 74dc 50bd 3327 93bc
00000050: f735 fa3c eb2d db3d ebab d1bc a562 2fbc
00000060: 55cc d33d aa5b 87bd 00c8 783d 30ec 6fbd
00000070: d607 a9bd 88a8 a33d ddc5 f23c 2a32 f2bd

predictor.0.weight f4 [10, 512]
-0.011045622 -0.015719853 0.0033367279 -0.03172679 0.03571684 -0.021696815 -0.010424099 0.040733002
-0.005126338 -0.011996462 -0.028716395 -0.036891792 -0.033741374 -0.028325342 0.0040531377 -0.014136154
0.0029755412 0.009198018 0.042596716 -0.016130466 -0.03712141 0.009688987 0.012955143 -0.0373188
0.0009785384 0.03903825 -0.040397726 0.024364656 -0.026090588 -0.03309802 0.00950778 -0.0009320408
0.04378048 -0.008259207 0.0039336123 -0.014115466 0.027649181 0.0132866055 -0.025709208 0.003937747
-0.032313667 0.04305653 -0.028367681 -0.011777986 -0.040048867 -0.023511408 -0.022133145 0.028567905
-0.025634585 0.04357775 0.0122302 -0.030749477 -0.026163459 0.005027507 0.029761955 0.015291794
-0.007497957 -0.013850069 -0.02494766 -0.019795984 -0.030216353 0.00069784356 0.028203288 -0.036682773
-0.01141025 -0.026055334 -0.021346299 0.027086077 -0.021427952 -0.042919572 0.02101474 0.029775051
0.013068699 0.016600018 0.015561529 0.03973094 -0.0041714665 0.012488516 0.036249377 -0.019583996
-0.008835635 0.028802987 0.03673878 -0.01967131 -0.02931081 0.02842107 -0.012206222 -0.04196422
-0.010716119 -0.02998803 -0.011173965 -0.040416885 0.0052088257 -0.026355825 -0.028214525 0.021262519
0.007735054 0.03308172 0.00021888073 0.007284066 -0.032937568 -0.017303254 0.023810128 -0.0363228
-0.043716077 0.02292345 0.028551472 -0.03277235 -0.024814272 -0.041739136 0.0045763636 -0.0097738085
0.011101182 0.023302538 0.017199343 -0.036595937 -0.033908546 -0.0073008398 0.0011587768 -0.026707733
-0.0014235254 -0.013043047 -0.012402133 0.012116647 0.037065998 -0.022802252 0.011467615 0.015448546
-0.021852847 0.0102618085 0.014439694 0.034776572 -0.03824434 -0.0021404654 0.0414069 0.00029999606
-0.013387143 -0.01791855 -0.039875496 0.029987395 0.031120298 -0.019334218 -0.013177481 0.0046973214
-0.03101731 0.04208254 -0.00805417 -0.011593715 0.017082777 0.03433164 0.0054319315 0.029865833
0.0024023321 0.016938748 -0.0006636099 -0.010410393 0.024156021 -0.012857826 0.035584006 0.027649453
0.0074777985 0.032554142 0.03741938 0.012513755 0.036579773 0.020068554 -0.03853164 -0.029113157
0.017214883 0.0012627365 0.020962251 -0.031036677 0.01638169 0.030480277 -0.025829451 -0.016742324
-0.004633673 -0.035803102 -0.03186378 -0.034047846 -0.0009263114 0.03041865 -0.036701735 -0.028200468
0.0032747758 -0.012731291 -0.015491005 -0.027656136 0.0010075535 0.037624434 -0.014134242 -0.019788206
-0.013622827 -0.016414454 -0.019712573 0.020320075 -0.040674154 0.042792723 -0.024194095 0.027085125
-0.029669903 -0.020558177 0.023421705 -0.02205828 -0.04397554 -0.010687005 0.0030267055 0.010701745
-0.015668739 -0.021403823 0.008179206 0.005690202 -0.0075950557 -0.037140217 0.0024686349 -0.02734593
0.024492623 -0.00410595 0.03825304 -0.041044336 -0.00920236 -0.0033035288 0.020811936 -0.030637855
-0.0058069886 -0.04156685 -0.037633505 0.034176618 0.0027203693 0.03959002 0.028856833 -0.014504365
0.041712277 -0.010222333 0.036863152 0.030738058 -0.04026776 -0.034359388 -0.021692133 -0.026267385
0.014934896 -0.03950012 -0.03749247 -0.029942472 -0.0045592226 -0.03792809 0.013620677 0.028758021
0.033713732 -0.040566828 -0.027457578 0.0020478936 0.039818082 -0.023602633 0.016307203 -0.017821591
00000000: b2f8 34bc ecc6 80bc 01ad 5a3b f3f3 01bd
00000010: d24b 123d 85bd b1bc d7c9 2abc a6d7 263d
00000020: d7fa a7bb cf8c 44bc a53e ebbc d91b 17bd
00000030: 6534 0abd 8c0a e8bc 2fd0 843b 549b 67bc
00000040: 4c01 433b 49b3 163c e579 2e3d 0a24 84bc
00000050: 9f0c 18bd 8fbe 1e3c cf41 543c 99db 18bd
00000060: 4d42 803a 92e6 1f3d 1678 25bd 6398 c73c
00000070: eebb d5bc ca91 07bd 85c6 1b3c 3354 74ba
00000080: 2953 333d a051 07bc 88e5 803b 8e44 67bc
00000090: 8980 e23c 10b0 593c 1e9c d2bc 3708 813b
000000a0: 565b 04bd 0b5c 303d 5763 e8bc 74f8 40bc
000000b0: 480a 24bd ff9a c0bc 9250 b5bc 3d07 ea3c
000000c0: 9fff d1bc 957e 323d 2d61 483c 54e6 fbbc
000000d0: c054 d6bc c9bd a43b 58cf f33c 6f8a 7a3c
000000e0: 6cb1 f5bb 66eb 62bc 095f ccbc 302b a2bc
000000f0: 4988 f7bc 7def 363a 950a e73c ad40 16bd
00000100: 0ff2 3abc ff71 d5bc 6fde aebc 9fe3 dd3c
00000110: ac89 afbc 6fcc 2fbd 1b27 ac3c cfea f33c
00000120: 191e 563c c3fc 873c c9f5 7e3c e9bc 223d
00000130: ccb0 88bb a29c 4c3c 3a7a 143d 9e6e a0bc
00000140: 57c3 10bc 3ef4 eb3c 677b 163d ba25 a1bc
00000150: 391d f0bc 4ed3 e83c 9bfc 47bc ade2 2bbd
00000160: a992 2fbc 75a9 f5bc 0213 37bc 2d8c 25bd
00000170: ccae aa3b 2ce8 d7bc 2622 e7bc bc2e ae3c
00000180: 5676 fd3b b380 073d 5983 6539 2daf ee3b
00000190: 8be9 06bd 8ebf 8dbc 750d c33c 37c7 14bd
000001a0: a10f 33bd f6c9 bb3c c7e4 e93c 4d3c 06bd
000001b0: 4d47 cbbc a8f6 2abd 52f5 953b 5322 20bc
000001c0: bbe1 353c f7e4 be3c a3e5 8c3c 9fe5 15bd
000001d0: b0e3 0abd e23b efbb 19e2 973a 2dca dabc
000001e0: 9695 baba 81b2 55bc 5132 4bbc e784 463c
000001f0: 84d2 173d cacb babc aae2 3b3c e61b 7d3c
00000200: be04 b3bc 2521 283c 7794 6c3c e171 0e3d
00000210: 19a6 1cbd 0d47 0cbb 489a 293d ca48 9d39
00000220: bf55 5bbc ecc9 92bc 7d54 23bd 20a8 f53c
00000230: ffef fe3c cb62 9ebc 5ce6 57bc fdeb 993b
00000240: 0418 febc be5e 2c3d a3f5 03bc 91f3 3dbc
00000250: 2ef1 8b3c 559f 0c3d 58fe b13b 31a9 f43c
00000260: 7270 1d3b 21c3 8a3c 1bf6 2dba 5a90 2abc
00000270: d9e2 c53c a2a9 52bc 89c0 113d 1b81 e23c
00000280: 5208 f53b 7e57 053d 1045 193d 7e06 4d3c
00000290: acd4 153d cf66 a43c 5ad3 1dbd b77e eebc
000002a0: 3a06 8d3c 6882 a53a 07b9 ab3c a140 febc
000002b0: e532 863c c6b1 f93c 4998 d3bc 3327 89bc
000002c0: 11d6 97bb 46a6 12bd 9883 02bd c175 0bbd
000002d0: b5d3 72ba 8830 f93c 8f54 16bd ab04 e7bc
000002e0: 9f9d 563b e896 50bc fccd 7dbc 1f8f e2bc
000002f0: e30f 843a 141c 1a3d 4f93 67bc e01a a2bc
00000300: 4732 5fbc 9b77 86bc 437c a1bc 4976 a63c
00000310: f199 26bd 6c47 2f3d b232 c6bc a0e1 dd3c
00000320: 4c0e f3bc 9f69 a8bc e0de bf3c 91b3 b4bc
00000330: b21f 34bd 8c18 2fbc b15b 463b 5f56 2f3c
00000340: ba5b 80bc 1257 afbc 1402 063c e074 ba3b
00000350: f2df f8bb 5720 18bd d2c8 213b 9204 e0bc
00000360: c1a4 c83c 348b 86bb 38af 1c3d 1b1e 28bd
00000370: 7fc5 16bc 0480 58bb cb7d aa3c 3dfc fabc
00000380: 8d48 bebb 0042 2abd 9725 1abd c8fc 0b3d
00000390: 3948 323b 2529 223d 2a65 ec3c b7a3 6dbc
000003a0: 7eda 2a3d 927b 27bc d1fd 163d 61ce fb3c
000003b0: cfef 24bd 6ebc 0cbd b3b3 b1bc b32e d7bc
000003c0: 7eb1 743c e1ca 21bd b491 19bd ea49 f5bc
000003d0: 8865 95bb 7c5a 1bbd 4329 5f3c f195 eb3c
000003e0: 6917 0a3d 6729 26bd b7ee e0bc f435 063b
000003f0: 4918 233d 4f5a c1bc af96 853c 96fe 91bc

predictor.0.bias f4 [10]
-0.013520246 0.043542404 0.019104585 0.019592969 -0.023471357 0.013337443 0.04019496 -0.039166916
-0.0046860403 -0.03092941
00000000: 0684 5dbc 8559 323d 3881 9c3c 6f81 a03c
00000010: 0147 c0bc 4a85 5a3c 78a3 243d 7d6d 20bd
00000020: 5b8d 99bb ad5f fdbc
