assign3_convolution_nn/archive/best101.pth (torch_old, 38401 bytes, 14 tensors)

pipe1.0.weight f4 [8, 3, 5, 5]
0.019490859 -0.015620729 -0.0034978385 -0.06405009 0.079042025 0.052070007 -0.09585737 0.079851985
-0.014808552 -0.056592043 0.071319565 -0.030008057 -0.11522675 0.027035996 0.07761174 -0.069875054
-0.0723865 0.07127111 -0.057780143 0.09683437 -0.053985998 -0.11572188 0.008300368 -0.047131736
0.08899139 -0.02521659 0.052137922 -0.043152824 -0.040361233 -0.06300184 -0.036282882 -0.06941578
-0.09718505 -0.087025344 0.069637634 -0.041998062 0.005763055 -0.04952514 0.016383534 0.0050255465
0.08444908 0.07928034 0.08112378 0.053551428 0.0859623 0.044561405 0.09972938 0.03728832
-0.05056924 -0.075119235 0.048594687 0.029749667 -0.027990626 0.032496322 -0.057090506 0.031971306
0.05955842 -0.082002796 -0.063681416 -0.041368235 -0.05077499 -0.04665543 0.0066552307 0.10190791
-0.059168696 0.024821252 0.10208212 -0.0071394052 0.06659767 -0.113618426 0.09937768 -0.04270309
0.102127045 0.035591684 -0.026520874 0.024086723 0.040489413 0.10970551 -0.112718344 0.029527236
0.10832709 -0.036372066 -0.020562101 0.11076333 -0.09505604 0.008411052 0.0057876506 -0.06558414
-0.061760854 0.052277487 -0.029209219 0.114167415 -0.08525599 -0.035696074 -0.00329049 -0.0030205154
-0.0020483283 0.10991938 -0.10374605 0.109930046 -0.030017102 -0.1151271 0.11053562 -0.0749804
-0.09959701 -0.11140378 -0.10115471 -0.056269743 -0.0871148 -0.09888713 -0.037064306 0.07683254
-0.010012756 0.092766844 -0.1078655 -0.10991719 -0.03223019 0.04742935 -0.08679124 -0.06849144
0.0714337 0.09982251 0.08745481 -0.10044025 -0.07313381 0.09348176 -0.057958428 0.032697048
-0.0010776678 -0.100577824 -0.069455594 -0.096345946 0.022957496 -0.0022536106 0.039787374 -0.019378535
-0.0584899 0.054082472 0.011975142 0.018098878 0.05123289 -0.006004213 0.041071486 -0.09050747
-0.06767905 0.07818023 -0.012989348 -0.021451043 -0.09389106 -0.08921249 -0.07300053 0.05496894
-0.057515517 0.02348528 -0.031064192 0.029852428 -0.014893471 -0.033844225 -0.014153905 0.066881225
0.024276776 -0.032098625 0.081019334 -0.05362996 -0.083747216 -0.08072699 0.028931495 0.09878161
0.07893457 0.054440867 0.029627673 -0.06784565 0.012809818 0.065575324 0.09142005 -0.07568221
0.01840679 0.065013774 -0.09090934 -0.059391122 -0.0740757 0.05353209 -0.01922957 -0.04428866
-0.073275894 0.09809933 0.08381535 -0.05396121 -0.06825807 -0.0345811 0.09357086 0.06371582
-0.10591038 0.11121037 -0.02148267 0.084626675 0.10293924 0.048608363 -0.03441749 0.07933473
0.00322566 0.111244924 -0.096012436 0.096314125 -0.057231963 0.0031264368 -0.057315852 0.0063660704
-0.11278768 0.011067892 0.038050663 0.092642605 -0.094165646 -0.06534415 0.068589784 0.03892942
-0.0081448415 -0.07571537 -0.11007827 0.0655445 0.06629805 0.045240264 -0.0148582 -0.009361148
-0.045815524 0.015781311 0.058847338 0.0069139306 0.050130583 0.052088547 -0.09211954 0.041930757
0.033544123 -0.07603907 -0.06688061 -0.018683145 0.047868654 0.03050853 0.07917295 -0.044218738
-0.04764536 -0.08182093 0.09201391 0.08913661 0.090906605 0.03227308 0.0047452296 0.056045312
-0.028798955 -0.03909804 0.10023616 -0.04643035 -0.027371025 -0.02855358 0.09295222 0.035689823
00000000: 4bab 9f3c 16ee 7fbc fe3b 65bb b22c 83bd
00000010: c9e0 a13d 5c47 553d de50 c4bd 7089 a33d
00000020: 929f 72bc 0fcd 67bd fe0f 923d 75d3 f5bc
00000030: 01fc ebbd 987a dd3c e7f2 9e3d a71a 8fbd
00000040: 603f 94bd 96f6 913d dfaa 6cbd 1951 c63d
00000050: 6c20 5dbd 98ff ecbd 44fe 073c 350d 41bd
00000060: 1e41 b63d 0693 cebc 938e 553d 04c1 30bd
00000070: d251 25bd 1c07 81bd 5c9d 14bd dc29 8ebd
00000080: f508 c7bd 583a b2bd 2d9e 8e3d 2906 2cbd
00000090: 02d8 bc3b e0da 4abd c336 863c 57ad a43b
000000a0: a4f3 ac3d bb5d a23d 3924 a63d be58 5b3d
000000b0: 010d b03d 0586 363d eb3e cc3d a3bb 183d
000000c0: b121 4fbd 1dd8 99bd 390b 473d 93b5 f33c
000000d0: 994c e5bc dd1a 053d bcd7 69bd 58f4 023d
000000e0: 88f3 733d 15f1 a7bd 676b 82bd bd71 29bd
000000f0: 70f9 4fbd c419 3fbd 1f14 da3b 18b5 d03d
00000100: e05a 72bd f055 cb3c 6e10 d13d acf1 e9bb
00000110: 5c64 883d c7b0 e8bd 8686 cb3d 6fe9 2ebd
00000120: fc27 d13d 96c8 113d 4e42 d9bc 8551 c53c
00000130: 3ad8 253d 48ad e03d e0d8 e6bd 1ae3 f13c
00000140: 98da dd3d e0fa 14bd da71 a8bc e2d7 e23d
00000150: beac c2bd 82ce 093c 55a6 bd3b fa50 86bd
00000160: f3f8 7cbd eb20 563d 2c48 efbc 9bd0 e93d
00000170: b19a aebd 0c36 12bd 43a5 57bb d7f3 45bb
00000180: 3f3d 06bb 691d e13d cf78 d4bd 0123 e13d
00000190: 6de6 f5bc c2c7 ebbd 8060 e23d 538f 99bd
000001a0: 84f9 cbbd aa27 e4bd 332a cfbd 1a7b 66bd
000001b0: 3f69 b2bd 5685 cabd bed0 17bd 615a 9d3d
000001c0: 8b0c 24bc 8bfc bd3d 96e8 dcbd 441c e1bd
000001d0: ce03 04bd 4745 423d 9bbf b1bd 3d45 8cbd
000001e0: d54b 923d be6f cc3d 821b b33d 9eb3 cdbd
000001f0: 2ec7 95bd 5d73 bf3d d165 6dbd 57ed 053d
00000200: 8840 8dba bffb cdbd bc3e 8ebd 0651 c5bd
00000210: 5c11 bc3c 50b1 13bb 16f8 223d bcbf 9ebc
00000220: 1b93 6fbd 9585 5d3d 6333 443c 1944 943c
00000230: 94d9 513d fdbe c4bb 933a 283d fb5b b9bd
00000240: 509b 8abd f51c a03d 46d1 54bc 19ba afbc
00000250: f549 c0bd 0ab5 b6bd 4d81 95bd 1c27 613d
00000260: 6495 6bbd 3464 c03c 557a febc 148d f43c
00000270: bf03 74bc 3ea0 0abd c8e5 67bc 06f9 883d
00000280: 17e0 c63c d979 03bd 77ed a53d 17ab 5bbd
00000290: a983 abbd 3154 a5bd be01 ed3c 034e ca3d
000002a0: 73a8 a13d 63fd 5e3d bcb5 f23c a9f2 8abd
000002b0: 45e0 513c 5b4c 863d 6f3a bb3d 46ff 9abd
000002c0: d6c9 963c f125 853d ad2e babd 1b44 73bd
000002d0: 00b5 97bd 7744 5b3d 5587 9dbc 0768 35bd
000002e0: ac11 96bd 4de8 c83d 62a7 ab3d 6e06 5dbd
000002f0: e3ca 8bbd e9a4 0dbd 14a2 bf3d 717d 823d
00000300: 8be7 d8bd 43c2 e33d 6dfc afbc c050 ad3d
00000310: cfd1 d23d 9019 473d 5bf9 0cbd 3f7a a23d
00000320: 9865 533b 61d4 e33d 2ba2 c4bd 5740 c53d
00000330: 106c 6abd e8e4 4c3b 07c4 6abd 789a d03b
00000340: 3afd e6bd 1b56 353c 03db 1b3d 68bb bd3d
00000350: ebd9 c0bd 27d3 85bd cd78 8c3d 7574 1f3d
00000360: f171 05bc a910 9bbd b770 e1bd 323c 863d
00000370: 46c7 873d db4d 393d cf6f 73bc 805f 19bc
00000380: 0fa9 3bbd cf47 813c e809 713d 418e e23b
00000390: ba55 4d3d cd5a 553d 2ba9 bcbd 96bf 2b3d
000003a0: 9065 093d 5fba 9bbd b4f8 88bd 650d 99bc
000003b0: ec11 443d 06ed f93c 6d25 a23d b51e 35bd
000003c0: c827 43bd bb91 a7bd ca71 bc3d 418d b63d
000003d0: 3e2d ba3d c730 043d df7d 9b3b c58f 653d
000003e0: c9eb ebbc 4425 20bd 9e48 cd3d c02d 3ebd
000003f0: 3339 e0bc 33e9 e9bc bc5d be3d 7e2f 123d

pipe1.0.bias f4 [8]
0.055909477 -0.05432806 -0.08153409 0.05486804 -0.06054779 -0.032350704 0.021741059 -0.04761731
00000000: 5601 653d 1a87 5ebd 58fb a6bd 4fbd 603d
00000010: f600 78bd 2c82 04bd 4e1a b23c 5e0a 43bd

pipe2.0.weight f4 [16, 8, 3, 3]
0.06925595 0.021303374 0.020572713 0.026374312 -0.04664013 -0.004821131 0.08828094 -0.061187487
-0.118020065 -0.013608407 0.09923049 0.089395896 0.022877868 0.05930199 -0.023304934 -0.11690165
-0.10368315 0.013100112 0.058999546 -0.029221697 -0.071590856 -0.110405125 -0.11192656 0.052057873
0.113861695 -0.01030602 -0.024690615 -0.030208373 0.11476923 0.07434716 -0.061391253 -0.08373873
0.046686113 0.00391798 0.05844774 -0.08223579 0.020565392 0.047129855 -0.001144026 0.06567545
-0.08773281 0.059594728 0.003150006 0.08572197 0.10896912 0.074515715 0.010034628 -0.0527528
-0.0436708 0.05080547 -0.060184184 -0.00029794234 0.058045506 0.07577461 -0.080578916 -0.036191512
0.023442501 0.062241215 0.021392787 0.0537126 0.0011584961 -0.018971648 0.059493147 0.103344396
-0.035904378 -0.09006865 0.00082878105 0.0208688 -0.10159287 -0.015467411 0.03401439 0.08555453
0.09489498 0.065379985 0.100655474 0.084375404 0.076286025 0.039412454 -0.11508092 0.05230748
-0.018162051 0.076558106 0.019385194 0.10203264 0.09550512 0.07204302 0.09984559 0.030811297
0.10988927 0.009321418 -0.059242707 -0.08266069 -0.10294452 0.039954886 -0.024404613 0.046875443
0.054387927 0.107960716 -0.06522303 -0.027917601 -0.11533518 -0.001058446 0.080882564 -0.023816615
-0.08066539 -0.046516497 0.053499337 -0.012928113 -0.0060175224 0.030687923 -0.090035014 0.043911513
-0.011460265 -0.063366406 0.11666156 -0.030280981 0.10966631 0.04925487 -0.07357131 0.0180197
-0.054904398 -0.01477671 -0.009496502 -0.062245414 -0.0126510495 -0.064097576 -0.016635858 0.08622392
-0.1036101 0.015678024 -0.08266098 0.045959663 0.030680213 -0.05279742 0.048062496 0.008407233
0.07662554 -0.050377127 0.060630575 0.026258122 0.10896592 0.02569683 0.04117668 0.050200947
0.036160663 -0.045158062 -0.02212905 -0.075153634 0.027823435 -0.060953397 -0.103072636 -0.116215274
-0.10824613 0.040881865 -0.035905544 0.11211104 0.0303554 -0.024332006 -0.008056646 -0.10131067
0.08341541 -0.112544544 0.002390637 0.07267252 -0.08634187 -0.053240377 -0.0046980088 -0.03215294
-0.09756494 0.022487815 0.053819682 0.10332884 -0.06223449 -0.08320428 0.07296716 0.04822581
0.08086553 0.082563914 0.06266653 -0.07782117 0.086693704 0.040058754 0.033261355 -0.101289466
-0.031088505 -0.027926551 0.007730121 0.040231284 -0.089762956 -0.019825224 -0.024449077 -0.035322677
0.055077855 -0.11590532 0.07087023 0.1075774 -0.11632869 -0.09296666 0.0007571798 0.056709073
-0.08164746 -0.006730712 -0.053440396 0.085507266 -0.06432186 0.11296552 0.08984366 0.056423042
-0.08644691 -0.029126534 -0.10001876 -0.028974792 -0.050209817 -0.04862191 0.048954453 0.0027513548
0.08450544 -0.037334014 -0.021708015 0.030462697 0.08138704 -0.044571336 -0.11806619 0.0863497
-0.027099993 -0.111360826 0.07164669 0.010544397 0.03274823 0.056487817 0.04714744 0.060612153
-0.11709343 -0.00041285076 0.070179075 0.007834617 -0.10878474 -0.0077092927 0.08555821 0.033028714
0.034305498 0.108803004 -0.09532832 0.015678154 -0.02149108 0.056696765 0.104433514 -0.073022395
0.11686566 0.08043261 0.020158952 0.09783412 -0.08018019 0.033204213 -0.01622805 0.063894875
00000000: 10d6 8d3d 6a84 ae3c 1b88 a83c f10e d83c
00000010: b909 3fbd 94fa 9dbb a3cc b43d bb9f 7abd
00000020: 81b4 f1bd ccf5 5ebc 5b39 cb3d 3215 b73d
00000030: 5e6a bb3c a5e6 723d fde9 bebc 226a efbd
00000040: d557 d4bd daa1 563c 82a9 713d 5762 efbc
00000050: 3a9e 92bd 151c e2bd c139 e5bd a33a 553d
00000060: 5230 e93d 95da 28bc f943 cabc 8d77 f7bc
00000070: 210c eb3d 5343 983d 6575 7bbd 367f abbd
00000080: f039 3f3d 6662 803b e666 6f3d 3d6b a8bd
00000090: c178 a83c 3c0b 413d 25f3 95ba da80 863d
000000a0: 42ad b3bd 9a19 743d 5570 4e3b 008f af3d
000000b0: 342b df3d b29b 983d 4868 243c 5213 58bd
000000c0: 27e0 32bd 6619 503d b183 76bd 2535 9cb9
000000d0: 20c1 6d3d b82f 9b3d 8f06 a5bd 8d3d 14bd
000000e0: 7d0a c03c a5f0 7e3d ed3f af3c be01 5c3d
000000f0: aed8 973a 6e6a 9bbc 16af 733d 3aa6 d33d
00000100: 7810 13bd ea75 b8bd 8e42 593a 0cf5 aa3c
00000110: ec0f d0bd 066b 7dbc ac52 0b3d 3737 af3d
00000120: 4d58 c23d f1e5 853d 7524 ce3d 03cd ac3d
00000130: d93b 9c3d f46e 213d 8caf ebbd 5e40 563d
00000140: 95c8 94bc 7fca 9c3d b3cd 9e3c 7df6 d03d
00000150: 3098 c33d 4a8b 933d d87b cc3d f967 fc3c
00000160: a00d e13d dcb8 183c 7ba8 72bd 024a a9bd
00000170: 94d4 d2bd bca7 233d 2fec c7bc 7700 403d
00000180: e0c5 5e3d 821a dd3d a793 85bd 74b3 e4bc
00000190: da34 ecbd 8ebb 8aba c2a5 a53d 101b c3bc
000001a0: e533 a5bd 1588 3ebd 1f22 5b3d 70d0 53bc
000001b0: a32e c5bb 3d65 fb3c 4764 b8bd 8fdc 333d
000001c0: d6c3 3bbc 3fc6 81bd 42ec ee3d d20f f8bc
000001d0: bb98 e03d 79bf 493d 8eac 96bd 0d9e 933c
000001e0: 6fe3 60bd 041a 72bc 3797 1bbc 0cf5 7ebd
000001f0: 5946 4fbc 9745 83bd ec47 88bc 2b96 b03d
00000200: 8831 d4bd 336f 803c 294a a9bd 3340 3c3d
00000210: 1255 fb3c 1c42 58bd 2edd 443d 7ebe 093c
00000220: daed 9c3d 3f58 4ebd c457 783d 461b d73c
00000230: 8629 df3d 2982 d23c e1a8 283d 829f 4d3d
00000240: 341d 143d a9f7 38bd fb47 b5bc 26ea 99bd
00000250: f9ed e33c 45aa 79bd bf17 d3bd 4602 eebd
00000260: 26b0 ddbd be73 273d b111 13bd 799a e53d
00000270: e3ab f83c ea53 c7bc 0600 04bc f87b cfbd
00000280: b3d5 aa3d c17d e6bd 3cac 1c3b 55d5 943d
00000290: 02d4 b0bd 9512 5abd c1f1 99bb cdb2 03bd
000002a0: 21d0 c7bd 5e38 b83c 0772 5c3d 129e d33d
000002b0: 98e9 7ebd 0167 aabd ce6f 953d 6d88 453d
000002c0: d49c a53d 4517 a93d 4f57 803d b560 9fbd
000002d0: 788c b13d a614 243d 0f3d 083d da70 cfbd
000002e0: 52ad febc 39c6 e4bc f44c fd3b 8fc9 243d
000002f0: a4d5 b7bd 8268 a2bc 6e49 c8bc 83ae 10bd
00000300: 5199 613d c55f edbd 6924 913d 8a51 dc3d
00000310: bc3d eebd 4e65 bebd 7a7d 463a c647 683d
00000320: c936 a7bd 4e8d dcbb 51e4 5abd 6f1e af3d
00000330: 2ebb 83bd 775a e73d f4ff b73d d91b 673d
00000340: 140b b1bd c59a eebc a3d6 ccbd 8b5c edbc
00000350: cfa8 4dbd c527 47bd 7784 483d 1350 343b
00000360: 3011 ad3d 8deb 18bd 02d5 b1bc e88c f93c
00000370: 40ae a63d 6f90 36bd b0cc f1bd 1dd8 b03d
00000380: ce00 debc 2511 e4bd 80bb 923d 68c2 2c3c
00000390: 0223 063d c55f 673d ad1d 413d 7344 783d
000003a0: aece efbd e473 d8b9 0cba 8f3d c45c 003c
000003b0: 89ca debd 3c9e fcbb 2539 af3d 1e49 073d
000003c0: ec83 0c3d 1cd4 de3d 7f3b c3bd 796f 803c
000003d0: 100e b0bc de3a 683d 3de1 d53d c48c 95bd
000003e0: 4357 ef3d dab9 a43d 6324 a53c 415d c83d
000003f0: 8335 a4bd 2401 083d b0f0 84bc 51db 823d

pipe2.0.bias f4 [16]
0.015494203 0.09554774 0.084719956 -0.063038215 0.014287205 0.017395802 0.0028775753 0.07074814
0.0928693 0.10290802 -0.05778604 0.0046787797 0.023667658 -0.09975922 0.050039556 0.08903125
00000000: 66db 7d3c 89ae c33d a881 ad3d 2e1a 81bd
00000010: e214 6a3c a481 8e3c b495 3c3b 67e4 903d
00000020: 4232 be3d 71c1 d23d 0eb1 6cbd 7350 993b
00000030: ade2 c13c 904e ccbd 47f6 4c3d 0456 b63d

pipe3.0.weight f4 [32, 16, 2, 2]
0.12420766 0.0015243154 0.09105382 -0.06649787 0.0267084 -0.062245317 -0.08716107 0.10576415
-0.057575177 0.051695228 -0.10308566 0.031125415 -0.03286155 0.10731649 0.06834113 -0.061692603
0.118634805 0.1117475 -0.010463769 -0.0322131 0.12126144 0.07860584 -0.11848669 -0.037519608
-0.09726314 0.009805636 -0.071414776 0.051263314 -0.070389375 -0.10393944 -0.038742714 -0.04321601
0.121512935 -0.038478754 -0.076735966 -0.09250354 -0.11152708 -0.09281061 -0.033465486 -0.12063187
0.018159596 -0.0042236857 0.07193044 0.09051591 -0.124696754 0.10407326 -0.04324074 0.062116586
0.036487255 0.056119584 -0.05340943 -0.04320332 -0.10061897 -0.10998686 -0.030688822 0.08368501
0.010949733 -0.043995447 0.11940533 -0.06514063 -0.021055046 -0.045152854 0.050617076 -0.07175532
0.07627334 -0.09207389 -0.012187049 -0.08418886 -0.010956615 -0.06516722 0.023695245 -0.09803927
0.088244796 0.010286346 0.11158626 -0.041959435 0.09467791 -0.10401486 0.09649789 -0.02071327
0.08339733 0.052220896 -0.10426603 0.11753537 0.018828034 0.021274924 -0.11058539 -0.008942634
0.07945907 -0.06678605 -0.10702956 0.04426065 0.07851951 -0.10468243 -0.03381504 0.0046670437
-0.08089982 -0.093486264 -0.12419543 0.11049393 -0.034830168 -0.03470038 -0.07606849 -0.07873775
0.091929704 -0.008782059 0.120717734 0.018894106 -0.009651452 -0.11271857 0.016268075 0.01718168
0.07476789 0.06626311 0.113804996 0.09939137 -0.026984885 -0.061371297 -0.07057683 -0.11582269
0.11017279 -0.12469441 -0.06648511 -0.015965968 -0.06211604 -0.04292707 -0.06703009 0.049611047
0.042037006 0.09216917 -0.010705872 0.097598284 0.100656 0.015146526 0.016511913 0.07210661
0.020279614 -0.034372833 -0.11356243 0.051895194 0.046741243 -0.0075620348 0.09853318 -0.094705075
-0.037628874 0.05269755 -0.021600869 0.12375997 0.009278554 -0.05915403 0.003151167 -0.07412835
-0.065732494 -0.0068650465 -0.1015219 0.05686113 0.071979396 -0.0678749 0.05736585 -0.069626614
0.053238716 0.055141117 -0.118854664 -0.1063814 -0.10953337 -0.01263843 -0.12372713 0.008907188
0.103418015 0.020218624 0.11205199 0.03457506 0.11851516 -0.05237438 -0.05121822 -0.08063617
-0.0071233897 0.040309 -0.043755915 0.10842158 -0.072097816 -0.10622276 -0.05171609 -0.014161646
0.1009134 -0.072298415 -0.007211128 0.015122817 -0.052046888 0.06140616 0.016012492 0.011140388
-0.07540433 -0.01926887 0.016924277 -0.008990705 -0.05939457 -0.00017488003 -0.07801299 0.044635043
-0.08473946 0.034732208 -0.04290609 -0.015611023 -0.013689533 -0.094350845 -0.11037636 -0.005963713
0.077174276 -0.0749612 0.015928835 0.086149335 -0.112501204 -0.003871128 0.11579536 0.04639332
-0.030225068 -0.060764253 -0.032888785 0.09953965 0.030179456 0.10319789 0.09023887 0.0045770854
-0.088948935 0.021017551 -0.08966291 -0.050488338 -0.037282035 0.031903982 0.005018264 -0.027106673
-0.08469589 -0.034675866 0.10543513 0.07605255 0.112712786 -0.064973876 -0.06414859 -0.09913413
0.02333729 0.089517176 0.045195654 0.07313736 -0.03000027 0.06765933 0.063856706 -0.1115461
0.108737275 -0.0067053437 0.024487749 0.1199656 0.0149647 -0.009304792 -0.076763764 -0.06569192
00000000: 9660 fe3d 8acb c73a 6d7a ba3d 0930 88bd
00000010: 93cb da3c f2f4 7ebd 8181 b2bd e09a d83d
00000020: f3d3 6bbd 60be 533d 931e d3bd bafa fe3c
00000030: d599 06bd bfc8 db3d 6ff6 8b3d 62b1 7cbd
00000040: cef6 f23d e0db e43d 3a70 2bbc e2f1 03bd
00000050: eb57 f83d 19fc a03d 26a9 f2bd 29ae 19bd
00000060: e631 c7bd d1a7 203c e941 92bd 7bf9 513d
00000070: 4e28 90bd 33de d4bd aeb0 1ebd 4503 31bd
00000080: c6db f83d e69b 1dbd bf27 9dbd 7f72 bdbd
00000090: 4f68 e4bd 7d13 bebd 1b13 09bd d80d f7bd
000000a0: 6fc3 943c d866 8abb 4450 933d 6860 b93d
000000b0: 0361 ffbd 5d24 d53d 341d 31bd f66d 7e3d
000000c0: a973 153d a6dd 653d d9c3 5abd f7f5 30bd
000000d0: 5211 cebd ca40 e1bd 2067 fbbc 0c63 ab3d
000000e0: 8266 333c 9234 34bd c88a f43d 7368 85bd
000000f0: a27b acbc 33f2 38bd da53 4f3d 74f4 92bd
00000100: 3235 9c3d 3c91 bcbd 30ac 47bc 366b acbd
00000110: 6083 33bc 6476 85bd 881c c23c d0c8 c8bd
00000120: b0b9 b43d 1088 283c 5687 e43d a8dd 2bbd
00000130: 7ee6 c13d be05 d5bd b0a0 c53d e0ae a9bc
00000140: 38cc aa3d 94e5 553d 6e89 d5bd 62b6 f03d
00000150: 403d 9a3c c048 ae3c 987a e2bd 2084 12bc
00000160: 70bb a23d 20c7 88bd 5032 dbbd a84a 353d
00000170: d6ce a03d be63 d6bd a481 0abd 00ee 983b
00000180: ceae a5bd ba75 bfbd 2c5a febd a44a e23d
00000190: 14aa 0ebd fc21 0ebd ccc9 9bbd 4241 a1bd
000001a0: a445 bc3d a0e2 0fbc dc3a f73d d0c7 9a3c
000001b0: 2021 1ebc fed8 e6bd a044 853c 98c0 8c3c
000001c0: e81f 993d f4b4 873d 9812 e93d b48d cb3d
000001d0: 680f ddbc 7860 7bbd 968a 90bd 7234 edbd
000001e0: 46a2 e13d c85f ffbd 5829 88bd 10cb 82bc
000001f0: 646d 7ebd 4cd4 2fbd 1247 89bd f434 4b3d
00000200: ff2e 2c3d 31c3 bc3d af67 2fbc 9ce1 c73d
00000210: bc24 ce3d 2229 783c fe43 873c a1ac 933d
00000220: 6f21 a63c 87ca 0cbd 6b93 e8bd 0e90 543d
00000230: bf73 3f3d f2ca f7bb c4cb c93d bcf4 c1bd
00000240: bc20 1abd 63d9 573d 4ef4 b0bc de75 fd3d
00000250: 1305 183c 7f4b 72bd cf83 4e3b 9bd0 97bd
00000260: c29e 86bd 2ff4 e0bb b7ea cfbd 37e7 683d
00000270: ef69 933d ff01 8bbd 74f8 6a3d 6698 8ebd
00000280: d710 5a3d a7db 613d 136a f3bd 7ede d9bd
00000290: 0853 e0bd 6b11 4fbc a664 fdbd 74ef 113c
000002a0: d3cc d33d 87a1 a53c 847b e53d 949e 0d3d
000002b0: 14b8 f23d 8586 56bd 32ca 51bd 9424 a5bd
000002c0: 536b e9bb 0d1b 253d 6739 33bd 220c de3d
000002d0: 05a8 93bd 528b d9bd 40d4 53bd 4006 68bc
000002e0: afab ce3d 3111 94bd 534b ecbb b1c5 773c
000002f0: 1e2f 55bd 0785 7b3d a12c 833c 2d86 363c
00000300: 966d 9abd c0d9 9dbc c8a4 8a3c c04d 13bc
00000310: b847 73bd 0060 37b9 46c5 9fbd 3cd3 363d
00000320: e28b adbd 5c43 0e3d 4cbe 2fbd 60c5 7fbc
00000330: 104a 60bc 043b c1bd 000d e2bd 406b c3bb
00000340: 8c0d 9e3d 4285 99bd 307d 823c 106f b03d
00000350: 0867 e6bd c0b2 7dbb 1e26 ed3d ec06 3e3d
00000360: 909a f7bc f0e3 78bd 64b6 06bd 72db cb3d
00000370: e83a f73c 6a59 d33d 28cf b83d 60fb 953b
00000380: dc2a b6bd 002d ac3c 30a1 b7bd dccc 4ebd
00000390: 0cb5 18bd c0ad 023d 4070 a43b d00e debc
000003a0: 0a75 adbd 4808 0ebd 60ee d73d 70c1 9b3d
000003b0: f6d5 e63d 0611 85bd 5660 83bd d606 cbbd
000003c0: d82d bf3c c854 b73d 141f 393d 0ac9 953d
000003d0: 20c3 f5bc fa90 8a3d 4ec7 823d 4872 e4bd
000003e0: a6b1 de3d 80b8 dbbb 889a c83c 86b0 f53d
000003f0: 802e 753c 2073 18bc 5236 9dbd 7c89 86bd

pipe3.0.bias f4 [32]
0.028741295 -0.055363387 -0.07887414 -0.02725263 0.04010723 0.0027513115 0.10265779 -0.11949107
0.08428152 0.065968364 -0.0063117156 0.12220079 -0.07171859 -0.061150383 -0.09712813 -0.052797034
0.0024690765 -0.008326019 -0.09491484 0.010800548 0.06962996 -0.07084048 -0.09895251 0.034608655
-0.071853496 -0.07739839 0.058857463 0.12265053 0.015311445 0.040692218 -0.08945167 0.04449745
00000000: dd72 eb3c b8c4 62bd c488 a1bd e840 dfbc
00000010: 7b47 243d 594f 343b 3f3e d23d bcb7 f4bd
00000020: ca9b ac3d 6c1a 873d 82d2 cebb 6844 fa3d
00000030: 32e1 92bd d378 7abd 1deb c6bd b441 58bd
00000040: 3bd0 213b db69 08bc b662 c2bd c8f4 303c
00000050: 279a 8e3d d014 91bd 9da7 cabd cec1 0d3d
00000060: ed27 93bd 0c83 9ebd 8614 713d 3330 fb3d
00000070: dbdc 7a3c e2ac 263d 7032 b7bd f542 363d

pipes.0.0.weight f4 [8, 3, 5, 5]
0.019490859 -0.015620729 -0.0034978385 -0.06405009 0.079042025 0.052070007 -0.09585737 0.079851985
-0.014808552 -0.056592043 0.071319565 -0.030008057 -0.11522675 0.027035996 0.07761174 -0.069875054
-0.0723865 0.07127111 -0.057780143 0.09683437 -0.053985998 -0.11572188 0.008300368 -0.047131736
0.08899139 -0.02521659 0.052137922 -0.043152824 -0.040361233 -0.06300184 -0.036282882 -0.06941578
-0.09718505 -0.087025344 0.069637634 -0.041998062 0.005763055 -0.04952514 0.016383534 0.0050255465
0.08444908 0.07928034 0.08112378 0.053551428 0.0859623 0.044561405 0.09972938 0.03728832
-0.05056924 -0.075119235 0.048594687 0.029749667 -0.027990626 0.032496322 -0.057090506 0.031971306
0.05955842 -0.082002796 -0.063681416 -0.041368235 -0.05077499 -0.04665543 0.0066552307 0.10190791
-0.059168696 0.024821252 0.10208212 -0.0071394052 0.06659767 -0.113618426 0.09937768 -0.04270309
0.102127045 0.035591684 -0.026520874 0.024086723 0.040489413 0.10970551 -0.112718344 0.029527236
0.10832709 -0.036372066 -0.020562101 0.11076333 -0.09505604 0.008411052 0.0057876506 -0.06558414
-0.061760854 0.052277487 -0.029209219 0.114167415 -0.08525599 -0.035696074 -0.00329049 -0.0030205154
-0.0020483283 0.10991938 -0.10374605 0.109930046 -0.030017102 -0.1151271 0.11053562 -0.0749804
-0.09959701 -0.11140378 -0.10115471 -0.056269743 -0.0871148 -0.09888713 -0.037064306 0.07683254
-0.010012756 0.092766844 -0.1078655 -0.10991719 -0.03223019 0.04742935 -0.08679124 -0.06849144
0.0714337 0.09982251 0.08745481 -0.10044025 -0.07313381 0.09348176 -0.057958428 0.032697048
-0.0010776678 -0.100577824 -0.069455594 -0.096345946 0.022957496 -0.0022536106 0.039787374 -0.019378535
-0.0584899 0.054082472 0.011975142 0.018098878 0.05123289 -0.006004213 0.041071486 -0.09050747
-0.06767905 0.07818023 -0.012989348 -0.021451043 -0.09389106 -0.08921249 -0.07300053 0.05496894
-0.057515517 0.02348528 -0.031064192 0.029852428 -0.014893471 -0.033844225 -0.014153905 0.066881225
0.024276776 -0.032098625 0.081019334 -0.05362996 -0.083747216 -0.08072699 0.028931495 0.09878161
0.07893457 0.054440867 0.029627673 -0.06784565 0.012809818 0.065575324 0.09142005 -0.07568221
0.01840679 0.065013774 -0.09090934 -0.059391122 -0.0740757 0.05353209 -0.01922957 -0.04428866
-0.073275894 0.09809933 0.08381535 -0.05396121 -0.06825807 -0.0345811 0.09357086 0.06371582
-0.10591038 0.11121037 -0.02148267 0.084626675 0.10293924 0.048608363 -0.03441749 0.07933473
0.00322566 0.111244924 -0.096012436 0.096314125 -0.057231963 0.0031264368 -0.057315852 0.0063660704
-0.11278768 0.011067892 0.038050663 0.092642605 -0.094165646 -0.06534415 0.068589784 0.03892942
-0.0081448415 -0.07571537 -0.11007827 0.0655445 0.06629805 0.045240264 -0.0148582 -0.009361148
-0.045815524 0.015781311 0.058847338 0.0069139306 0.050130583 0.052088547 -0.09211954 0.041930757
0.033544123 -0.07603907 -0.06688061 -0.018683145 0.047868654 0.03050853 0.07917295 -0.044218738
-0.04764536 -0.08182093 0.09201391 0.08913661 0.090906605 0.03227308 0.0047452296 0.056045312
-0.028798955 -0.03909804 0.10023616 -0.04643035 -0.027371025 -0.02855358 0.09295222 0.035689823
00000000: 4bab 9f3c 16ee 7fbc fe3b 65bb b22c 83bd
00000010: c9e0 a13d 5c47 553d de50 c4bd 7089 a33d
00000020: 929f 72bc 0fcd 67bd fe0f 923d 75d3 f5bc
00000030: 01fc ebbd 987a dd3c e7f2 9e3d a71a 8fbd
00000040: 603f 94bd 96f6 913d dfaa 6cbd 1951 c63d
00000050: 6c20 5dbd 98ff ecbd 44fe 073c 350d 41bd
00000060: 1e41 b63d 0693 cebc 938e 553d 04c1 30bd
00000070: d251 25bd 1c07 81bd 5c9d 14bd dc29 8ebd
00000080: f508 c7bd 583a b2bd 2d9e 8e3d 2906 2cbd
00000090: 02d8 bc3b e0da 4abd c336 863c 57ad a43b
000000a0: a4f3 ac3d bb5d a23d 3924 a63d be58 5b3d
000000b0: 010d b03d 0586 363d eb3e cc3d a3bb 183d
000000c0: b121 4fbd 1dd8 99bd 390b 473d 93b5 f33c
000000d0: 994c e5bc dd1a 053d bcd7 69bd 58f4 023d
000000e0: 88f3 733d 15f1 a7bd 676b 82bd bd71 29bd
000000f0: 70f9 4fbd c419 3fbd 1f14 da3b 18b5 d03d
00000100: e05a 72bd f055 cb3c 6e10 d13d acf1 e9bb
00000110: 5c64 883d c7b0 e8bd 8686 cb3d 6fe9 2ebd
00000120: fc27 d13d 96c8 113d 4e42 d9bc 8551 c53c
00000130: 3ad8 253d 48ad e03d e0d8 e6bd 1ae3 f13c
00000140: 98da dd3d e0fa 14bd da71 a8bc e2d7 e23d
00000150: beac c2bd 82ce 093c 55a6 bd3b fa50 86bd
00000160: f3f8 7cbd eb20 563d 2c48 efbc 9bd0 e93d
00000170: b19a aebd 0c36 12bd 43a5 57bb d7f3 45bb
00000180: 3f3d 06bb 691d e13d cf78 d4bd 0123 e13d
00000190: 6de6 f5bc c2c7 ebbd 8060 e23d 538f 99bd
000001a0: 84f9 cbbd aa27 e4bd 332a cfbd 1a7b 66bd
000001b0: 3f69 b2bd 5685 cabd bed0 17bd 615a 9d3d
000001c0: 8b0c 24bc 8bfc bd3d 96e8 dcbd 441c e1bd
000001d0: ce03 04bd 4745 423d 9bbf b1bd 3d45 8cbd
000001e0: d54b 923d be6f cc3d 821b b33d 9eb3 cdbd
000001f0: 2ec7 95bd 5d73 bf3d d165 6dbd 57ed 053d
00000200: 8840 8dba bffb cdbd bc3e 8ebd 0651 c5bd
00000210: 5c11 bc3c 50b1 13bb 16f8 223d bcbf 9ebc
00000220: 1b93 6fbd 9585 5d3d 6333 443c 1944 943c
00000230: 94d9 513d fdbe c4bb 933a 283d fb5b b9bd
00000240: 509b 8abd f51c a03d 46d1 54bc 19ba afbc
00000250: f549 c0bd 0ab5 b6bd 4d81 95bd 1c27 613d
00000260: 6495 6bbd 3464 c03c 557a febc 148d f43c
00000270: bf03 74bc 3ea0 0abd c8e5 67bc 06f9 883d
00000280: 17e0 c63c d979 03bd 77ed a53d 17ab 5bbd
00000290: a983 abbd 3154 a5bd be01 ed3c 034e ca3d
000002a0: 73a8 a13d 63fd 5e3d bcb5 f23c a9f2 8abd
000002b0: 45e0 513c 5b4c 863d 6f3a bb3d 46ff 9abd
000002c0: d6c9 963c f125 853d ad2e babd 1b44 73bd
000002d0: 00b5 97bd 7744 5b3d 5587 9dbc 0768 35bd
000002e0: ac11 96bd 4de8 c83d 62a7 ab3d 6e06 5dbd
000002f0: e3ca 8bbd e9a4 0dbd 14a2 bf3d 717d 823d
00000300: 8be7 d8bd 43c2 e33d 6dfc afbc c050 ad3d
00000310: cfd1 d23d 9019 473d 5bf9 0cbd 3f7a a23d
00000320: 9865 533b 61d4 e33d 2ba2 c4bd 5740 c53d
00000330: 106c 6abd e8e4 4c3b 07c4 6abd 789a d03b
00000340: 3afd e6bd 1b56 353c 03db 1b3d 68bb bd3d
00000350: ebd9 c0bd 27d3 85bd cd78 8c3d 7574 1f3d
00000360: f171 05bc a910 9bbd b770 e1bd 323c 863d
00000370: 46c7 873d db4d 393d cf6f 73bc 805f 19bc
00000380: 0fa9 3bbd cf47 813c e809 713d 418e e23b
00000390: ba55 4d3d cd5a 553d 2ba9 bcbd 96bf 2b3d
000003a0: 9065 093d 5fba 9bbd b4f8 88bd 650d 99bc
000003b0: ec11 443d 06ed f93c 6d25 a23d b51e 35bd
000003c0: c827 43bd bb91 a7bd ca71 bc3d 418d b63d
000003d0: 3e2d ba3d c730 043d df7d 9b3b c58f 653d
000003e0: c9eb ebbc 4425 20bd 9e48 cd3d c02d 3ebd
000003f0: 3339 e0bc 33e9 e9bc bc5d be3d 7e2f 123d

pipes.0.0.bias f4 [8]
0.055909477 -0.05432806 -0.08153409 0.05486804 -0.06054779 -0.032350704 0.021741059 -0.04761731
00000000: 5601 653d 1a87 5ebd 58fb a6bd 4fbd 603d
00000010: f600 78bd 2c82 04bd 4e1a b23c 5e0a 43bd

pipes.1.0.weight f4 [16, 8, 3, 3]
0.06925595 0.021303374 0.020572713 0.026374312 -0.04664013 -0.004821131 0.08828094 -0.061187487
-0.118020065 -0.013608407 0.09923049 0.089395896 0.022877868 0.05930199 -0.023304934 -0.11690165
-0.10368315 0.013100112 0.058999546 -0.029221697 -0.071590856 -0.110405125 -0.11192656 0.052057873
0.113861695 -0.01030602 -0.024690615 -0.030208373 0.11476923 0.07434716 -0.061391253 -0.08373873
0.046686113 0.00391798 0.05844774 -0.08223579 0.020565392 0.047129855 -0.001144026 0.06567545
-0.08773281 0.059594728 0.003150006 0.08572197 0.10896912 0.074515715 0.010034628 -0.0527528
-0.0436708 0.05080547 -0.060184184 -0.00029794234 0.058045506 0.07577461 -0.080578916 -0.036191512
0.023442501 0.062241215 0.021392787 0.0537126 0.0011584961 -0.018971648 0.059493147 0.103344396
-0.035904378 -0.09006865 0.00082878105 0.0208688 -0.10159287 -0.015467411 0.03401439 0.08555453
0.09489498 0.065379985 0.100655474 0.084375404 0.076286025 0.039412454 -0.11508092 0.05230748
-0.018162051 0.076558106 0.019385194 0.10203264 0.09550512 0.07204302 0.09984559 0.030811297
0.10988927 0.009321418 -0.059242707 -0.08266069 -0.10294452 0.039954886 -0.024404613 0.046875443
0.054387927 0.107960716 -0.06522303 -0.027917601 -0.11533518 -0.001058446 0.080882564 -0.023816615
-0.08066539 -0.046516497 0.053499337 -0.012928113 -0.0060175224 0.030687923 -0.090035014 0.043911513
-0.011460265 -0.063366406 0.11666156 -0.030280981 0.10966631 0.04925487 -0.07357131 0.0180197
-0.054904398 -0.01477671 -0.009496502 -0.062245414 -0.0126510495 -0.064097576 -0.016635858 0.08622392
-0.1036101 0.015678024 -0.08266098 0.045959663 0.030680213 -0.05279742 0.048062496 0.008407233
0.07662554 -0.050377127 0.060630575 0.026258122 0.10896592 0.02569683 0.04117668 0.050200947
0.036160663 -0.045158062 -0.02212905 -0.075153634 0.027823435 -0.060953397 -0.103072636 -0.116215274
-0.10824613 0.040881865 -0.035905544 0.11211104 0.0303554 -0.024332006 -0.008056646 -0.10131067
0.08341541 -0.112544544 0.002390637 0.07267252 -0.08634187 -0.053240377 -0.0046980088 -0.03215294
-0.09756494 0.022487815 0.053819682 0.10332884 -0.06223449 -0.08320428 0.07296716 0.04822581
0.08086553 0.082563914 0.06266653 -0.07782117 0.086693704 0.040058754 0.033261355 -0.101289466
-0.031088505 -0.027926551 0.007730121 0.040231284 -0.089762956 -0.019825224 -0.024449077 -0.035322677
0.055077855 -0.11590532 0.07087023 0.1075774 -0.11632869 -0.09296666 0.0007571798 0.056709073
-0.08164746 -0.006730712 -0.053440396 0.085507266 -0.06432186 0.11296552 0.08984366 0.056423042
-0.08644691 -0.029126534 -0.10001876 -0.028974792 -0.050209817 -0.04862191 0.048954453 0.0027513548
0.08450544 -0.037334014 -0.021708015 0.030462697 0.08138704 -0.044571336 -0.11806619 0.0863497
-0.027099993 -0.111360826 0.07164669 0.010544397 0.03274823 0.056487817 0.04714744 0.060612153
-0.11709343 -0.00041285076 0.070179075 0.007834617 -0.10878474 -0.0077092927 0.08555821 0.033028714
0.034305498 0.108803004 -0.09532832 0.015678154 -0.02149108 0.056696765 0.104433514 -0.073022395
0.11686566 0.08043261 0.020158952 0.09783412 -0.08018019 0.033204213 -0.01622805 0.063894875
00000000: 10d6 8d3d 6a84 ae3c 1b88 a83c f10e d83c
00000010: b909 3fbd 94fa 9dbb a3cc b43d bb9f 7abd
00000020: 81b4 f1bd ccf5 5ebc 5b39 cb3d 3215 b73d
00000030: 5e6a bb3c a5e6 723d fde9 bebc 226a efbd
00000040: d557 d4bd daa1 563c 82a9 713d 5762 efbc
00000050: 3a9e 92bd 151c e2bd c139 e5bd a33a 553d
00000060: 5230 e93d 95da 28bc f943 cabc 8d77 f7bc
00000070: 210c eb3d 5343 983d 6575 7bbd 367f abbd
00000080: f039 3f3d 6662 803b e666 6f3d 3d6b a8bd
00000090: c178 a83c 3c0b 413d 25f3 95ba da80 863d
000000a0: 42ad b3bd 9a19 743d 5570 4e3b 008f af3d
000000b0: 342b df3d b29b 983d 4868 243c 5213 58bd
000000c0: 27e0 32bd 6619 503d b183 76bd 2535 9cb9
000000d0: 20c1 6d3d b82f 9b3d 8f06 a5bd 8d3d 14bd
000000e0: 7d0a c03c a5f0 7e3d ed3f af3c be01 5c3d
000000f0: aed8 973a 6e6a 9bbc 16af 733d 3aa6 d33d
00000100: 7810 13bd ea75 b8bd 8e42 593a 0cf5 aa3c
00000110: ec0f d0bd 066b 7dbc ac52 0b3d 3737 af3d
00000120: 4d58 c23d f1e5 853d 7524 ce3d 03cd ac3d
00000130: d93b 9c3d f46e 213d 8caf ebbd 5e40 563d
00000140: 95c8 94bc 7fca 9c3d b3cd 9e3c 7df6 d03d
00000150: 3098 c33d 4a8b 933d d87b cc3d f967 fc3c
00000160: a00d e13d dcb8 183c 7ba8 72bd 024a a9bd
00000170: 94d4 d2bd bca7 233d 2fec c7bc 7700 403d
00000180: e0c5 5e3d 821a dd3d a793 85bd 74b3 e4bc
00000190: da34 ecbd 8ebb 8aba c2a5 a53d 101b c3bc
000001a0: e533 a5bd 1588 3ebd 1f22 5b3d 70d0 53bc
000001b0: a32e c5bb 3d65 fb3c 4764 b8bd 8fdc 333d
000001c0: d6c3 3bbc 3fc6 81bd 42ec ee3d d20f f8bc
000001d0: bb98 e03d 79bf 493d 8eac 96bd 0d9e 933c
000001e0: 6fe3 60bd 041a 72bc 3797 1bbc 0cf5 7ebd
000001f0: 5946 4fbc 9745 83bd ec47 88bc 2b96 b03d
00000200: 8831 d4bd 336f 803c 294a a9bd 3340 3c3d
00000210: 1255 fb3c 1c42 58bd 2edd 443d 7ebe 093c
00000220: daed 9c3d 3f58 4ebd c457 783d 461b d73c
00000230: 8629 df3d 2982 d23c e1a8 283d 829f 4d3d
00000240: 341d 143d a9f7 38bd fb47 b5bc 26ea 99bd
00000250: f9ed e33c 45aa 79bd bf17 d3bd 4602 eebd
00000260: 26b0 ddbd be73 273d b111 13bd 799a e53d
00000270: e3ab f83c ea53 c7bc 0600 04bc f87b cfbd
00000280: b3d5 aa3d c17d e6bd 3cac 1c3b 55d5 943d
00000290: 02d4 b0bd 9512 5abd c1f1 99bb cdb2 03bd
000002a0: 21d0 c7bd 5e38 b83c 0772 5c3d 129e d33d
000002b0: 98e9 7ebd 0167 aabd ce6f 953d 6d88 453d
000002c0: d49c a53d 4517 a93d 4f57 803d b560 9fbd
000002d0: 788c b13d a614 243d 0f3d 083d da70 cfbd
000002e0: 52ad febc 39c6 e4bc f44c fd3b 8fc9 243d
000002f0: a4d5 b7bd 8268 a2bc 6e49 c8bc 83ae 10bd
00000300: 5199 613d c55f edbd 6924 913d 8a51 dc3d
00000310: bc3d eebd 4e65 bebd 7a7d 463a c647 683d
00000320: c936 a7bd 4e8d dcbb 51e4 5abd 6f1e af3d
00000330: 2ebb 83bd 775a e73d f4ff b73d d91b 673d
00000340: 140b b1bd c59a eebc a3d6 ccbd 8b5c edbc
00000350: cfa8 4dbd c527 47bd 7784 483d 1350 343b
00000360: 3011 ad3d 8deb 18bd 02d5 b1bc e88c f93c
00000370: 40ae a63d 6f90 36bd b0cc f1bd 1dd8 b03d
00000380: ce00 debc 2511 e4bd 80bb 923d 68c2 2c3c
00000390: 0223 063d c55f 673d ad1d 413d 7344 783d
000003a0: aece efbd e473 d8b9 0cba 8f3d c45c 003c
000003b0: 89ca debd 3c9e fcbb 2539 af3d 1e49 073d
000003c0: ec83 0c3d 1cd4 de3d 7f3b c3bd 796f 803c
000003d0: 100e b0bc de3a 683d 3de1 d53d c48c 95bd
000003e0: 4357 ef3d dab9 a43d 6324 a53c 415d c83d
000003f0: 8335 a4bd 2401 083d b0f0 84bc 51db 823d

pipes.1.0.bias f4 [16]
0.015494203 0.09554774 0.084719956 -0.063038215 0.014287205 0.017395802 0.0028775753 0.07074814
0.0928693 0.10290802 -0.05778604 0.0046787797 0.023667658 -0.09975922 0.050039556 0.08903125
00000000: 66db 7d3c 89ae c33d a881 ad3d 2e1a 81bd
00000010: e214 6a3c a481 8e3c b495 3c3b 67e4 903d
00000020: 4232 be3d 71c1 d23d 0eb1 6cbd 7350 993b
00000030: ade2 c13c 904e ccbd 47f6 4c3d 0456 b63d

pipes.2.0.weight f4 [32, 16, 2, 2]
0.12420766 0.0015243154 0.09105382 -0.06649787 0.0267084 -0.062245317 -0.08716107 0.10576415
-0.057575177 0.051695228 -0.10308566 0.031125415 -0.03286155 0.10731649 0.06834113 -0.061692603
0.118634805 0.1117475 -0.010463769 -0.0322131 0.12126144 0.07860584 -0.11848669 -0.037519608
-0.09726314 0.009805636 -0.071414776 0.051263314 -0.070389375 -0.10393944 -0.038742714 -0.04321601
0.121512935 -0.038478754 -0.076735966 -0.09250354 -0.11152708 -0.09281061 -0.033465486 -0.12063187
0.018159596 -0.0042236857 0.07193044 0.09051591 -0.124696754 0.10407326 -0.04324074 0.062116586
0.036487255 0.056119584 -0.05340943 -0.04320332 -0.10061897 -0.10998686 -0.030688822 0.08368501
0.010949733 -0.043995447 0.11940533 -0.06514063 -0.021055046 -0.045152854 0.050617076 -0.07175532
0.07627334 -0.09207389 -0.012187049 -0.08418886 -0.010956615 -0.06516722 0.023695245 -0.09803927
0.088244796 0.010286346 0.11158626 -0.041959435 0.09467791 -0.10401486 0.09649789 -0.02071327
0.08339733 0.052220896 -0.10426603 0.11753537 0.018828034 0.021274924 -0.11058539 -0.008942634
0.07945907 -0.06678605 -0.10702956 0.04426065 0.07851951 -0.10468243 -0.03381504 0.0046670437
-0.08089982 -0.093486264 -0.12419543 0.11049393 -0.034830168 -0.03470038 -0.07606849 -0.07873775
0.091929704 -0.008782059 0.120717734 0.018894106 -0.009651452 -0.11271857 0.016268075 0.01718168
0.07476789 0.06626311 0.113804996 0.09939137 -0.026984885 -0.061371297 -0.07057683 -0.11582269
0.11017279 -0.12469441 -0.06648511 -0.015965968 -0.06211604 -0.04292707 -0.06703009 0.049611047
0.042037006 0.09216917 -0.010705872 0.097598284 0.100656 0.015146526 0.016511913 0.07210661
0.020279614 -0.034372833 -0.11356243 0.051895194 0.046741243 -0.0075620348 0.09853318 -0.094705075
-0.037628874 0.05269755 -0.021600869 0.12375997 0.009278554 -0.05915403 0.003151167 -0.07412835
-0.065732494 -0.0068650465 -0.1015219 0.05686113 0.071979396 -0.0678749 0.05736585 -0.069626614
0.053238716 0.055141117 -0.118854664 -0.1063814 -0.10953337 -0.01263843 -0.12372713 0.008907188
0.103418015 0.020218624 0.11205199 0.03457506 0.11851516 -0.05237438 -0.05121822 -0.08063617
-0.0071233897 0.040309 -0.043755915 0.10842158 -0.072097816 -0.10622276 -0.05171609 -0.014161646
0.1009134 -0.072298415 -0.007211128 0.015122817 -0.052046888 0.06140616 0.016012492 0.011140388
-0.07540433 -0.01926887 0.016924277 -0.008990705 -0.05939457 -0.00017488003 -0.07801299 0.044635043
-0.08473946 0.034732208 -0.04290609 -0.015611023 -0.013689533 -0.094350845 -0.11037636 -0.005963713
0.077174276 -0.0749612 0.015928835 0.086149335 -0.112501204 -0.003871128 0.11579536 0.04639332
-0.030225068 -0.060764253 -0.032888785 0.09953965 0.030179456 0.10319789 0.09023887 0.0045770854
-0.088948935 0.021017551 -0.08966291 -0.050488338 -0.037282035 0.031903982 0.005018264 -0.027106673
-0.08469589 -0.034675866 0.10543513 0.07605255 0.112712786 -0.064973876 -0.06414859 -0.09913413
0.02333729 0.089517176 0.045195654 0.07313736 -0.03000027 0.06765933 0.063856706 -0.1115461
0.108737275 -0.0067053437 0.024487749 0.1199656 0.0149647 -0.009304792 -0.076763764 -0.06569192
00000000: 9660 fe3d 8acb c73a 6d7a ba3d 0930 88bd
00000010: 93cb da3c f2f4 7ebd 8181 b2bd e09a d83d
00000020: f3d3 6bbd 60be 533d 931e d3bd bafa fe3c
00000030: d599 06bd bfc8 db3d 6ff6 8b3d 62b1 7cbd
00000040: cef6 f23d e0db e43d 3a70 2bbc e2f1 03bd
00000050: eb57 f83d 19fc a03d 26a9 f2bd 29ae 19bd
00000060: e631 c7bd d1a7 203c e941 92bd 7bf9 513d
00000070: 4e28 90bd 33de d4bd aeb0 1ebd 4503 31bd
00000080: c6db f83d e69b 1dbd bf27 9dbd 7f72 bdbd
00000090: 4f68 e4bd 7d13 bebd 1b13 09bd d80d f7bd
000000a0: 6fc3 943c d866 8abb 4450 933d 6860 b93d
000000b0: 0361 ffbd 5d24 d53d 341d 31bd f66d 7e3d
000000c0: a973 153d a6dd 653d d9c3 5abd f7f5 30bd
000000d0: 5211 cebd ca40 e1bd 2067 fbbc 0c63 ab3d
000000e0: 8266 333c 9234 34bd c88a f43d 7368 85bd
000000f0: a27b acbc 33f2 38bd da53 4f3d 74f4 92bd
00000100: 3235 9c3d 3c91 bcbd 30ac 47bc 366b acbd
00000110: 6083 33bc 6476 85bd 881c c23c d0c8 c8bd
00000120: b0b9 b43d 1088 283c 5687 e43d a8dd 2bbd
00000130: 7ee6 c13d be05 d5bd b0a0 c53d e0ae a9bc
00000140: 38cc aa3d 94e5 553d 6e89 d5bd 62b6 f03d
00000150: 403d 9a3c c048 ae3c 987a e2bd 2084 12bc
00000160: 70bb a23d 20c7 88bd 5032 dbbd a84a 353d
00000170: d6ce a03d be63 d6bd a481 0abd 00ee 983b
00000180: ceae a5bd ba75 bfbd 2c5a febd a44a e23d
00000190: 14aa 0ebd fc21 0ebd ccc9 9bbd 4241 a1bd
000001a0: a445 bc3d a0e2 0fbc dc3a f73d d0c7 9a3c
000001b0: 2021 1ebc fed8 e6bd a044 853c 98c0 8c3c
000001c0: e81f 993d f4b4 873d 9812 e93d b48d cb3d
000001d0: 680f ddbc 7860 7bbd 968a 90bd 7234 edbd
000001e0: 46a2 e13d c85f ffbd 5829 88bd 10cb 82bc
000001f0: 646d 7ebd 4cd4 2fbd 1247 89bd f434 4b3d
00000200: ff2e 2c3d 31c3 bc3d af67 2fbc 9ce1 c73d
00000210: bc24 ce3d 2229 783c fe43 873c a1ac 933d
00000220: 6f21 a63c 87ca 0cbd 6b93 e8bd 0e90 543d
00000230: bf73 3f3d f2ca f7bb c4cb c93d bcf4 c1bd
00000240: bc20 1abd 63d9 573d 4ef4 b0bc de75 fd3d
00000250: 1305 183c 7f4b 72bd cf83 4e3b 9bd0 97bd
00000260: c29e 86bd 2ff4 e0bb b7ea cfbd 37e7 683d
00000270: ef69 933d ff01 8bbd 74f8 6a3d 6698 8ebd
00000280: d710 5a3d a7db 613d 136a f3bd 7ede d9bd
00000290: 0853 e0bd 6b11 4fbc a664 fdbd 74ef 113c
000002a0: d3cc d33d 87a1 a53c 847b e53d 949e 0d3d
000002b0: 14b8 f23d 8586 56bd 32ca 51bd 9424 a5bd
000002c0: 536b e9bb 0d1b 253d 6739 33bd 220c de3d
000002d0: 05a8 93bd 528b d9bd 40d4 53bd 4006 68bc
000002e0: afab ce3d 3111 94bd 534b ecbb b1c5 773c
000002f0: 1e2f 55bd 0785 7b3d a12c 833c 2d86 363c
00000300: 966d 9abd c0d9 9dbc c8a4 8a3c c04d 13bc
00000310: b847 73bd 0060 37b9 46c5 9fbd 3cd3 363d
00000320: e28b adbd 5c43 0e3d 4cbe 2fbd 60c5 7fbc
00000330: 104a 60bc 043b c1bd 000d e2bd 406b c3bb
00000340: 8c0d 9e3d 4285 99bd 307d 823c 106f b03d
00000350: 0867 e6bd c0b2 7dbb 1e26 ed3d ec06 3e3d
00000360: 909a f7bc f0e3 78bd 64b6 06bd 72db cb3d
00000370: e83a f73c 6a59 d33d 28cf b83d 60fb 953b
00000380: dc2a b6bd 002d ac3c 30a1 b7bd dccc 4ebd
00000390: 0cb5 18bd c0ad 023d 4070 a43b d00e debc
000003a0: 0a75 adbd 4808 0ebd 60ee d73d 70c1 9b3d
000003b0: f6d5 e63d 0611 85bd 5660 83bd d606 cbbd
000003c0: d82d bf3c c854 b73d 141f 393d 0ac9 953d
000003d0: 20c3 f5bc fa90 8a3d 4ec7 823d 4872 e4bd
000003e0: a6b1 de3d 80b8 dbbb 889a c83c 86b0 f53d
000003f0: 802e 753c 2073 18bc 5236 9dbd 7c89 86bd

pipes.2.0.bias f4 [32]
0.028741295 -0.055363387 -0.07887414 -0.02725263 0.04010723 0.0027513115 0.10265779 -0.11949107
0.08428152 0.065968364 -0.0063117156 0.12220079 -0.07171859 -0.061150383 -0.09712813 -0.052797034
0.0024690765 -0.008326019 -0.09491484 0.010800548 0.06962996 -0.07084048 -0.09895251 0.034608655
-0.071853496 -0.07739839 0.058857463 0.12265053 0.015311445 0.040692218 -0.08945167 0.04449745
00000000: dd72 eb3c b8c4 62bd c488 a1bd e840 dfbc
00000010: 7b47 243d 594f 343b 3f3e d23d bcb7 f4bd
00000020: ca9b ac3d 6c1a 873d 82d2 cebb 6844 fa3d
00000030: 32e1 92bd d378 7abd 1deb c6bd b441 58bd
00000040: 3bd0 213b db69 08bc b662 c2bd c8f4 303c
00000050: 279a 8e3d d014 91bd 9da7 cabd cec1 0d3d
00000060: ed27 93bd 0c83 9ebd 8614 713d 3330 fb3d
00000070: dbdc 7a3c e2ac 263d 7032 b7bd f542 363d

predictor.0.weight f4 [10, 512]
-0.024056384 -0.03641702 -0.032973725 0.0027981014 0.013094908 -0.016804595 -0.003485428 -0.0016858841
-0.0404833 -0.00034691746 -0.038650118 0.0423523 0.008933007 -0.011697565 0.009850147 0.032038495
-0.003542494 0.005078543 -0.019475067 0.017376255 0.040016633 0.01286253 0.019895393 0.03954869
-0.03856484 -0.010546457 -0.043048628 0.024372179 -0.04009831 0.03880627 0.04209977 0.008511499
-0.0031353843 0.0336162 -0.005473902 -0.039740317 -0.03520235 0.04378939 -0.03989687 0.0068127126
-0.02946213 0.038421888 0.012351373 -0.011606869 0.027769024 -0.013812272 -0.04263214 -0.04088119
0.04355977 0.019989882 -0.030591257 0.014933586 0.008227106 0.014990602 -0.017649656 -0.017967476
0.041251805 0.012580227 0.032376636 -0.019704442 0.043097977 0.038741846 0.029142987 0.014541253
-0.03861499 -0.017547764 0.041583467 -0.033688325 -0.033201903 -0.0067026587 -0.019497728 0.018289467
0.03544609 0.010435329 -0.037208844 -0.013519143 0.025469013 -0.01453222 -0.0008176925 -0.03165914
-0.040840697 -0.026472064 -0.025551436 0.0020794352 -0.01074133 0.014098773 -0.018376023 0.0029512036
-0.027631816 0.034100104 -0.019171584 -0.007826505 -0.02259343 0.036202423 0.023755282 0.0037177785
-0.013899081 -0.0011237877 -0.00035428395 -0.037564997 0.0047965725 -0.035434026 -0.037753433 0.014659923
-0.031923987 0.020900771 0.04278842 -0.010029639 -0.03530593 -0.033098944 0.0011283238 -0.041414585
0.015647454 -0.021775402 0.042415816 0.029350799 -0.019024914 -0.011710666 0.037970614 0.02943113
-0.03360886 -0.0064816214 0.009110108 -0.040943604 -0.027565746 -0.025140937 -0.021007549 -0.04198477
-0.022733832 0.03320052 0.034303732 0.022262668 -0.019957805 -0.040817883 0.0217481 -0.021582624
-0.010469696 0.009739561 0.03536623 -0.025008239 -0.04453063 0.016339893 0.022841964 -0.03948327
0.008767929 -0.0034608762 -0.036603283 -0.036965556 -0.0019135327 -0.014808285 -0.02218684 -0.007965485
-0.026161758 -0.03066971 0.00079259835 -0.040997125 0.022315355 0.010137259 0.040717058 0.01245159
0.014040503 0.03485032 0.038004827 0.033395883 0.011482896 0.04334684 0.005073228 -0.04034348
-0.019550927 0.01994234 0.012313623 0.0061392784 -0.022258287 -0.010479351 0.040611625 0.03718724
-0.009522518 -0.018241426 0.020076416 -0.019847907 0.015882723 0.010516309 0.009135959 -0.0056790947
-0.01938105 0.043949578 0.0022366447 0.027012989 -0.011102571 -0.02098605 0.022096442 -0.020302575
-0.004559721 -0.010333615 -0.031241437 0.025104122 -0.009242214 -0.015102206 -0.011051383 -0.0008208315
0.010088168 0.0415146 -0.03217572 -0.024240876 0.033724394 0.0136806145 0.040310573 0.012962416
0.014426818 0.0048970394 -0.032265708 0.04002159 0.00811431 -0.020911427 0.02250304 0.006219028
0.005624926 -0.021174764 0.010110377 0.03542236 -0.015848687 0.04315504 0.00056781503 0.035071917
-0.0105382865 -0.039732646 -0.00084581133 -0.027012609 -0.007757399 -0.021743484 -0.019051036 -0.03661778
0.015836071 -0.028334098 0.021933848 0.016409582 0.037784133 0.039411474 -0.042937722 0.00054404023
0.00375738 -0.015486443 0.019635458 -0.035996575 -0.02661437 -0.030824702 -0.0432182 -0.034401193
0.019368317 0.015048388 0.0011301897 0.02606767 -0.039008245 -0.025766144 0.003505621 -0.023006752
00000000: e511 c5bc 032a 15bd 750f 07bd 5a60 373b
00000010: 068c 563c caa9 89bc c76b 64bb e2f8 dcba
00000020: d1d1 25bd 79e2 b5b9 964f 1ebd 9b79 2d3d
00000030: bf5b 123c 25a7 3fbc 8362 213c cc3a 033d
00000040: 3029 68bb e869 a63b 2d8a 9fbc a658 8e3c
00000050: 7be8 233d 5cbd 523c aafb a23c cffd 213d
00000060: 2af6 1dbd 0ccb 2cbc c253 30bd 2aa8 c73c
00000070: 203e 24bd 53f3 1e3d cf70 2c3d d073 0b3c
00000080: 057b 4dbb 24b1 093d 6b5e b3bb bec6 22bd
00000090: 5730 10bd 815c 333d e66a 23bd 2d3d df3b
000000a0: 915a f1bc 4560 1d3d 6a5d 4a3c bd2a 3ebc
000000b0: dd7b e33c de4c 62bc 0a9f 2ebd 0973 27bd
000000c0: bb6b 323d d2c1 a33c 849a fabc 00ac 743c
000000d0: fcca 063c 249b 753c 0396 90bc 8730 93bc
000000e0: a7f7 283d 4c1d 4e3c 5d9d 043d 366b a1bc
000000f0: 8187 303d c5af 1e3d 46bd ee3c 703e 6e3c
00000100: c02a 1ebd 54c0 8fbc 6d53 2a3d c5fc 09bd
00000110: b8fe 07bd faa1 dbbb b3b9 9fbc cbd3 953c
00000120: eb2f 113d f1f8 2a3c 4d68 18bd 657f 5dbc
00000130: 64a4 d03c 8c18 6ebc 6a5a 56ba 04ad 01bd
00000140: 9348 27bd f1db d8bc 3f51 d1bc 2247 083b
00000150: 67fc 2fbc 8afe 663c 5089 96bc fb68 413b
00000160: 1e5c e2bc 8dac 0b3d ba0d 9dbc be3a 00bc
00000170: db15 b9bc fe48 143d 709a c23c f9a5 733b
00000180: f9b8 63bc 0f4c 93ba 30bf b9b9 c1dd 19bd
00000190: 912c 9d3b 4523 11bd 58a3 1abd 2c30 703c
000001a0: bac2 02bd 1838 ab3c e942 2f3d 5b53 24bc
000001b0: f39c 10bd c292 07bd 44e4 933a 57a2 29bd
000001c0: 172f 803c 5462 b2bc 35bc 2d3d 1671 f03c
000001d0: 23da 9bbc 18de 3fbc 1387 1b3d 8e19 f13c
000001e0: 72a9 09bd c863 d4bb 9042 153c 7bb4 27bd
000001f0: 8fd1 e1bc 5ef4 cdbc 0618 acbc 39f8 2bbd
00000200: 4d3c babc 45fd 073d 1282 0c3d 3360 b63c
00000210: 8d7e a3bc a730 27bd 1229 b23c 0bce b0bc
00000220: 1689 2bbc ae92 1f3c 2edc 103d 14de ccbc
00000230: c065 36bd 3ddb 853c 121f bb3c 36b9 21bd
00000240: 5ca7 0f3c decf 62bb 53ed 15bd 3269 17bd
00000250: 81cf faba 739e 72bc 2dc1 b5bc aa81 02bc
00000260: 2f51 d6bc 0b3f fbbc 60c6 4f3a 9aec 27bd
00000270: b1ce b63c bf16 263c eec6 263d c101 4c3c
00000280: 230a 663c 36bf 0e3d f3aa 1b3d 1fca 083d
00000290: c222 3c3c 758c 313d 523d a63b 343f 25bd
000002a0: 4429 a0bc 1e5e a33c 14bf 493c 002c c93b
000002b0: 0357 b6bc 95b1 2bbc 6058 263d a651 183d
000002c0: 5604 1cbc 0b6f 95bc 4c77 a43c 1498 a2bc
000002d0: 7c1c 823c 994c 2c3c fdae 153c b317 babb
000002e0: 02c5 9ebc 7904 343d ac94 123b 584a dd3c
000002f0: 8fe7 35bc f0ea abbc 9903 b53c 9651 a6bc
00000300: b669 95bb 534e 29bc 0bee ffbc 29a7 cd3c
00000310: a86c 17bc 3e6f 77bc dc10 35bc 122d 57ba
00000320: d848 253c 370b 2a3d b0ca 03bd cd94 c6bc
00000330: 9722 0a3d a824 603c b31c 253d 5060 543c
00000340: 765e 6c3c 5877 a03b 0c29 04bd aeed 233d
00000350: e2f1 043c 714e abbc 4c58 b83c fdc8 cb3b
00000360: 4d51 b83b b376 adbc ffa5 253c 0917 113d
00000370: 1bd5 81bc 57c3 303d 6cd9 143a 92a7 0f3d
00000380: c7a8 2cbc b3be 22bd 70b9 5dba 8c49 ddbc
00000390: c831 febb 641f b2bc eb10 9cbc 86fc 15bd
000003a0: a6ba 813c e91c e8bc 9dae b33c 636d 863c
000003b0: 89c3 1a3d ed6d 213d 77df 2fbd ec9d 0e3a
000003c0: 603e 763b daba 7dbc 8ada a03c 2571 13bd
000003d0: 6106 dabc 1684 fcbc 9105 31bd 44e8 0cbd
000003e0: 4eaa 9e3c 848d 763c e022 943a de8b d53c
000003f0: 1cc7 1fbd 8513 d3bc 90be 653b a878 bcbc

predictor.0.bias f4 [10]
-0.009470538 -0.042102534 0.03191347 -0.0067086467 0.010169398 -0.024860326 0.040805705 -0.030294012
0.016326373 0.030558888
00000000: 512a 1bbc b573 2cbd b3b7 023d 35d4 dbbb
00000010: 8c9d 263c e2a7 cbbc e223 273d 262b f8bc
00000020: e3be 853c a256 fa3c
